notebook2_intermediate_data/models/stockPrice/model_5.pth (torch, 533352 bytes, 36 tensors)

input_attention.weight f4 [1, 74]
00000000: 9a58 213c 19d1 abbd 0f0c 86bd c5c3 c2bd
00000010: a0cb 29bd 150f b03c 93c6 863b 85f7 2abd
00000020: 1c0d eabc f072 20bd 10f5 893d 92ff 21bd
00000030: 7bf5 3fbd 811d d9bd 46f2 80bd a2e5 5abd
00000040: 0641 d1bd ead0 28bd b9d3 ec3d 5c39 e73d
00000050: c659 d8bd 9bf6 8fbb 4600 ee3d 240b f33c
00000060: 8602 f13c 9886 48bd 8f80 b73d 8673 b83d
00000070: 3c81 90bd a143 3d3c 84e7 533c 6014 ba3d
00000080: 096e 83bd 5083 b8bd 3b4e b43c aac3 843c
00000090: a069 0fbd 2886 493d 9dfe a73d 1f78 94bd
000000a0: 43ce 9ebb 635a 2e3d 36b6 abbd e25c e6bc
000000b0: c292 77bc 7189 adbd 3a63 b23d 6e7b 103d
000000c0: c623 52bd 1541 ed3d e70c 323d 2659 e63d
000000d0: 5e5d a5bd ca71 0dbd e069 733d cc1d 9cbd
000000e0: 49e2 43bc b86a 76bd ed20 0abd e886 9ebd
000000f0: 131d e23d 90e9 fbbc bbe9 42bd 1b25 8a3a
00000100: 9879 b13d 2548 bebd b826 483e 18df 8b3e
00000110: e986 bf3e 2d1f b43d c4c1 5c3e 83b7 b43e
00000120: a05c d43e 8951 b53e
0.009847784 -0.083894916 -0.06545269 -0.09509996 -0.041453958 0.021491567 0.0041130274 -0.04173996
-0.028570704 -0.039172113 0.06736195 -0.03955037 -0.046864968 -0.106013305 -0.0629621 -0.05344165
-0.1021748 -0.04121486 0.115638204 0.11290237 -0.10563998 -0.0043934113 0.11621146 0.029668398
0.029420149 -0.048956484 0.089600675 0.09006409 -0.070558995 0.0115517685 0.012933616 0.090859175
-0.06417472 -0.09009421 0.02200996 0.016206581 -0.03501284 0.049200207 0.082028605 -0.07249474
-0.0048463657 0.04256667 -0.08384363 -0.028120462 -0.015110673 -0.084734805 0.08710332 0.03527396
-0.051303647 0.11584679 0.043469336 0.112474725 -0.08074449 -0.034532346 0.059427142 -0.07622871
-0.011955806 -0.06016037 -0.033722807 -0.07740575 0.11040702 -0.03075102 -0.047586184 0.0010539623
0.0866577 -0.09291104 0.1954602 0.27318645 0.37407616 0.08795009 0.2155829 0.35296258
0.41476917 0.3541377

rnn.weight_ih_l0 f4 [192, 86]
00000000: 01e3 32be 9e6d 103e 7fcf 2ebd b6d8 8abc
00000010: c27a aeba e037 85bd 30c6 d23d 1c80 13bd
00000020: 78e9 1d3d 890e 04be 4c7b 683c a6ef 64bd
00000030: 7929 723d a9d5 cb3c 55f6 943d e9fc 9c3d
00000040: 3fb5 c93d f0da f03b af4b 45bd 71fe f33c
00000050: 8f2e 273d b94d eebd 9ecd a13c 83c0 14be
00000060: fd41 023d b556 9e3d 1533 b6bd d79d 853b
00000070: 9678 8b3d 4e33 203e f627 2bbe d4f4 a13d
00000080: 814b 2bbd 0278 483e 019d fbbd b7ce 273d
00000090: 8c06 5bbd 0cae 9abd 1936 f2bd ad73 d5bd
000000a0: 8a4b 03be 8f2b b13c bb3d 56bc 6f06 5b3d
000000b0: 2b2f aabd 8813 d7bd c98f c43d 63ee ae3c
000000c0: 0631 91bd 983e f33d c280 b63d 684e b7bd
000000d0: 12e1 0d3e d471 8bbd c71b 5d3d 1377 a7bd
000000e0: b5e5 aabb 544b b13d 044d 99bd 73e1 0b3d
000000f0: 26b9 f43d 87ef 99bd cf21 753d cbec 0dbe
00000100: cb2a b0bd 920e 08be a23a eabd 0586 c1bd
00000110: a224 28be 3751 7b3d 10c9 c03d f7a8 f9bd
00000120: 7b59 043d f6fd c3bd 602e 813d 6c2d 68bc
00000130: e010 a33d fb24 193a 5a6d 22bd 8e27 dabb
00000140: 68f1 943d 4c8a b5bd 3da3 533d c2e2 e2bc
00000150: a326 cc3d abfa 83bd 407b 9c3c a9bf 08be
00000160: 6966 62be 4fea efbd c338 bdbd 934f 6ebd
00000170: 61fa a3bd 2d65 23be 1fb3 003c 4094 fdbd
00000180: 0f6c 933c 27e3 17bc 3f3f 8abc fce1 7cbd
00000190: c5eb b0bd 2953 43be 43e8 b23a 00b8 5dbe
000001a0: 0833 b4bd 5a5a 1abe cead ea3d 8ab2 e8bb
000001b0: 083c 783d f6ac bebc 45ce 8f37 b2bb d43c
000001c0: 421a 773c f4f6 ec3b 0253 633c 5b04 e5bb
000001d0: 55ac 01be 38de 00be 07ca 48bd 0105 9e3d
000001e0: eb0f a2bd b232 58be e737 f6bd fa04 c1bd
000001f0: f513 b8bd 1595 67bd 87d9 13bd d358 e0bd
00000200: 776e f2bd 0aaa ddbc 3064 52bd e89d 8cbd
00000210: 27b4 cdbd 5780 4cbd 18b3 dcbc ee5c 0fbe
00000220: 24da b5bd afe4 a0bc e0d9 af3c 60c7 24be
00000230: d2c3 b83c 3ea1 e1bd 4b17 983d 12e3 653d
00000240: b9e3 373c d095 aabd bb29 103d 4923 29bd
00000250: c6a8 2a3d 0b7e 823d f8e1 bf3d a604 babc
00000260: 41a4 8c3d 3037 123d 191a bd3c b617 b73b
00000270: cc2e 57bd 053b cdbd 3641 19be fca0 2dbe
00000280: 3387 b23d 470c 08bd f9c1 fcbd d9a9 22be
00000290: ee9d 2bbd f55f c1ba 9c52 85bb a27d 60bd
000002a0: bba8 17be 0f86 213d 2adb cb3c 47ed 95bd
000002b0: 1f96 053e 6493 cdba e3f5 afbd a02a 893d
000002c0: 5d1d 9cbd d92f 7abd 11d3 913d 69c1 7a3d
000002d0: db21 13bd 3858 9c3d 5755 023d f590 0cbe
000002e0: 3bfd 80bd 9d2b a53d 2060 8cbd 0eab f23d
000002f0: 8d0c 923d a946 4ebc ee9d 9d3d 3814 bfbb
00000300: 2661 853d e682 08be 172f 87bd b60c ce3d
00000310: d3d4 b6bd ef47 c9bc 6178 553d 6ead 2bbd
00000320: 9584 fabb dbec 693d 7f08 9f3d e56c f43d
00000330: 3bc8 40bc e573 a3bd 592d fc3d 0c1d ddbd
00000340: db02 793d 8cc1 0cbc 2c2a fdbd 915a 853c
00000350: eea3 d5bd 1ee6 893d 5d02 b93d b537 1c3c
00000360: d0fc 3cbc 5508 8e3d 30f2 c7bc b2a4 5b3d
00000370: 39f0 ff3c ca1a b13c e9ae a2bd 9757 f63d
00000380: da85 143d 99ae 10bd 94a7 913c 28ba 81bd
00000390: 6a93 833d 03e6 a53d 51ab ea3d 800f c3bd
000003a0: d174 a0bd 740b a93d 1363 af3b 9042 a2bd
000003b0: 36db e73d a238 2abe 4372 1bbe a8ef bc3c
000003c0: 82b7 9fbd 021f 9e3c 8f44 babd 06da 5a3d
000003d0: 7082 09be 0e81 8cbd 9c08 c4bd 245b e03d
000003e0: b80a 163d e52e bfbb 915c 6f3d 3ef0 55bd
000003f0: a096 c8bd a3d2 91bc 418e e8bd a010 a33d
-0.17469408 0.14104316 -0.042678352 -0.016949039 -0.0013311731 -0.06504798 0.102917075 -0.036010846
0.03855273 -0.1289617 0.0141895525 -0.05589261 0.059121583 0.024882155 0.072735466 0.07665426
0.09849023 0.007350318 -0.04816788 0.029784413 0.040815886 -0.11635918 0.019751366 -0.14526562
0.031801213 0.07731382 -0.08896462 0.004077654 0.06810109 0.15644571 -0.16714463 0.079080254
-0.041820053 0.1957703 -0.122858055 0.040968623 -0.05347304 -0.07552728 -0.118267246 -0.10422454
-0.12821785 0.021627216 -0.013076241 0.053472932 -0.08309778 -0.10501772 0.09597737 0.021353906
-0.070894286 0.11877173 0.08911277 -0.08950502 0.13855389 -0.0680882 0.05398157 -0.081770085
-0.0052153715 0.08656946 -0.07485393 0.034150552 0.11949377 -0.07516389 0.059846696 -0.1385986
-0.08601912 -0.13286808 -0.114369646 -0.0944939 -0.16420224 0.06135675 0.0941335 -0.121904306
0.032311898 -0.095699236 0.063076735 -0.014170986 0.07962203 0.00058419973 -0.039655067 -0.0066575473
0.07272607 -0.08864269 0.051669348 -0.027696017 0.09968307 -0.064442955 0.019101739 -0.13354363
-0.22109379 -0.11714613 -0.09239342 -0.058181357 -0.0800674 -0.15956564 0.007855206 -0.12381792
0.017995862 -0.009270466 -0.016875861 -0.061738953 -0.086387195 -0.19074692 0.0013649542 -0.21652222
-0.08798796 -0.15073529 0.11458932 -0.0071013616 0.060604125 -0.023275834 1.714298e-05 0.025968406
0.015081944 0.0072315875 0.013874771 -0.0069890446 -0.12663396 -0.1258477 -0.049020793 0.07715798
-0.07913192 -0.21113089 -0.12022381 -0.09424777 -0.089881815 -0.05653866 -0.036096122 -0.10954442
-0.11837476 -0.02705862 -0.051365077 -0.06866056 -0.10044127 -0.049927082 -0.026940867 -0.14000294
-0.08879498 -0.019640295 0.021466196 -0.1609168 0.022554312 -0.11017083 0.07426318 0.056124754
0.011223727 -0.08329356 0.035196047 -0.041293416 0.04166486 0.06371697 0.09369272 -0.022707295
0.068672664 0.035697162 0.023083733 0.0055875434 -0.052534863 -0.10021023 -0.14966282 -0.16955942
0.087171935 -0.033214834 -0.12341685 -0.15885104 -0.04189866 -0.0014753329 -0.0040686857 -0.054807313
-0.1481046 0.03943449 0.024884779 -0.07320648 0.13045548 -0.0015684185 -0.08591821 0.06697583
-0.07622788 -0.061080787 0.07120336 0.061219607 -0.03592096 0.07634014 0.031819668 -0.13727172
-0.062983 0.08064959 -0.06854272 0.11849032 0.071313 -0.012590089 0.07696138 -0.0058312677
0.0651267 -0.13331184 -0.066007785 0.10061018 -0.08927312 -0.024570433 0.052116755 -0.041913442
-0.0076451995 0.05711065 0.077652924 0.119348325 -0.011766489 -0.079810895 0.12313337 -0.10796556
0.06079374 -0.008591067 -0.12361559 0.016278537 -0.10431658 0.067333445 0.09033654 0.009534766
-0.011534885 0.06935183 -0.024407476 0.053623863 0.031242477 0.02161922 -0.07943518 0.12028425
0.036260463 -0.03532276 0.017780103 -0.063343346 0.064246014 0.08100512 0.11458457 -0.09524441
-0.07834781 0.08254138 0.0053523867 -0.07922852 0.11321108 -0.16623166 -0.15180306 0.023063496
-0.07798673 0.019301895 -0.09095108 0.05343058 -0.13428664 -0.06860553 -0.095719546 0.10954884
0.036631316 -0.0058344477 0.058437888 -0.052231066 -0.097943544 -0.017800635 -0.11355258 0.07962155

rnn.weight_hh_l0 f4 [192, 64]
00000000: 424c 9ebc be44 c4bd c6fe f13d 57d3 93bd
00000010: 23d5 ec3d fb7e e53d a165 4e3d dc02 96bc
00000020: a5ad a93d cf69 19be 6780 b8bd 33e7 acbd
00000030: 0e3d 26be 87c1 4abd b784 213d c0d3 993d
00000040: 833e 2bbb db48 21be 0ca9 f3bd 18fe 833d
00000050: d244 cfbc a718 b33d 45e3 a43b 88b3 e23b
00000060: 8812 cc3c ff2a 54bd 9a86 65bd eb57 7bbc
00000070: c8b8 35bd 61fe 8abd f796 82bd 3f85 a3bd
00000080: c8c7 103d 9a55 ac3d 8353 df3d 78f2 15bd
00000090: c5a6 59ba 38ed 91bc b8c0 b43d e530 2b3d
000000a0: c1d1 353c 6e4b 0d3e cf9f 72bd e13c 84bd
000000b0: b8d5 183d cdaa a5ba 90af e03d 1116 86bd
000000c0: 744b d53c 2a14 593d e3fa 7f3d a6d4 9cbd
000000d0: e360 88bd ddb5 d93d 892f 13bd 0132 22bd
000000e0: 338e f13a 5379 983d bec3 d2bd 3785 7bbd
000000f0: 9ce8 773c 6973 023e 5a74 c63d db07 d2bd
00000100: 86b5 d43a 8df1 5f3e 2022 aebd ddea 8b3d
00000110: 72f3 56bd 03f2 583d 68e1 803d ee00 fd3d
00000120: c6b8 093e 62e6 503d 835d 13bd deaf 20bd
00000130: ac0b a5bd 4922 1d3e 6ce2 923d d45b 3b3e
00000140: 1a64 02bd 4033 90bd 2333 bcbd fd5b 7d3e
00000150: 0f35 093e 9474 d53d 8ca4 e03c ee48 1abd
00000160: f93d ca3d b22f 24bd e7ef e13d cf2d 95bb
00000170: cbda 6f3d b10d 13be d04a b23d f980 06be
00000180: 8376 0dbe 8bb1 953d 0efe 2abd f757 1cba
00000190: d42f ff3c 6c9f 38bd 1ca0 983d fc30 12be
000001a0: 9621 69be 5101 9abc e734 46bb e981 5f3d
000001b0: ea08 8f3d 29e3 a13d cbc3 623e 1798 1ebd
000001c0: c8e2 7d3c 6bf9 4bbd 46cb 3f3d 55b4 dbbd
000001d0: 7126 8cbd 88b4 0f3d e50a 76bc 3f82 7ebc
000001e0: 5b5a db3d dfa5 13be e366 e83d a7a3 073e
000001f0: 8338 9c3c 2fef 19bd 778c f33d 0a7f d23d
00000200: f4ad 19be f144 a03c 9469 683e 3279 edbc
00000210: 4a33 923d 00b1 023e 0137 e8bc e60b a7bd
00000220: d91e b33d 69e4 293c b846 07bd ac45 003e
00000230: 5e48 67be 06fc 89bd 453f f4bd 7d0d 14bc
00000240: 21de 433d 562f 35bd 4204 02bd 1eae 83bd
00000250: fb5a e13d 64f7 063e fd3b 763e f159 82bc
00000260: a30f ea3d e1e1 9cbd 8fc3 d73d 8e3d ebbc
00000270: 6332 fdbd 45bd b8bd cca4 2d3d 58c6 6bbd
00000280: 40af cd3d c0ef 503d 3622 903a 5fc2 b8bd
00000290: 831c d1bd e9ef db3d 113a ecbc 616f 853c
000002a0: 32f6 acbd f374 253d 6245 dbbd d8ad b63c
000002b0: b707 f8bd d264 fc3b 709d 83bd d609 dabd
000002c0: c534 fc3c c661 eebd 336b e53d ddde 403e
000002d0: 9f3b d2bd c66a 5abd 4f2c 8cbd 2921 e2bd
000002e0: a5b9 c73d 4acc 04be 8941 5cbd c14e ddbd
000002f0: a2bf 8b3c ace8 2fbd 0f07 b23d 5672 2dbd
00000300: 1c47 bbbd 2a06 dcbd 972f c63d 9c85 6a3e
00000310: c5ee cf3d f3a6 88bc dcf7 0cbe 065e 75bd
00000320: 7bcc 38be d6a5 883d 234f 6c3c 1fb1 b13c
00000330: 4c03 10bd d215 1d3c f035 a63c 41c7 3a3d
00000340: 3667 8fbd eddf 853d 7ebb 74bd fbe9 f53d
00000350: 9cf5 be3c 49e0 543d fa3e 533d 7d21 cdbd
00000360: 66ab a23d 8c44 083c 23a2 11bd 54a7 05be
00000370: 27bd b9bd 3afb 873d 0087 093e 0d03 40bd
00000380: b6ad ae3d ba5a 1cbe b2df 393e b235 083e
00000390: c6ce 10ba f1d7 b9bc 3b71 c53c 1f86 aabd
000003a0: 612b 0b3d bdc7 913d 6d51 953d 1970 d7bc
000003b0: b48a 03bc 4735 9b3d 57cc 31bd ffe0 b83d
000003c0: 56fd a5bc 34de 583d 4319 27be 91b6 e23d
000003d0: b1e1 123e d9e1 9f3d 70a5 2d3b 00b4 0fbc
000003e0: 9d66 ed3c ef25 bfbd 5c89 9cbd ae17 0a3d
000003f0: 0213 2b3e dd40 273d bb79 3a3d c066 0bbd
-0.019323472 -0.09583424 0.11816172 -0.07218044 0.1156409 0.1120586 0.05038989 -0.01831191
0.08285073 -0.14981769 -0.09008866 -0.08442535 -0.16234228 -0.04950097 0.039433207 0.07511091
-0.002612979 -0.15750448 -0.118974775 0.06444949 -0.02530137 0.087449364 0.0050319755 0.0069183744
0.02491118 -0.051798817 -0.05603657 -0.0153407855 -0.044365674 -0.067868 -0.063764505 -0.07984399
0.035346776 0.08414765 0.109046005 -0.03660819 -0.00083027437 -0.01781331 0.08825821 0.041794676
0.0110973725 0.13798305 -0.059234437 -0.06456924 0.037313193 -0.0012639404 0.10970986 -0.065471776
0.026036955 0.052997746 0.062495124 -0.07657747 -0.06659105 0.10630391 -0.035934005 -0.03959847
0.001842922 0.07445016 -0.10291241 -0.06140634 0.015131142 0.12739338 0.09690161 -0.102554046
0.0016228415 0.21869488 -0.085026026 0.06831906 -0.05247826 0.052965175 0.06292993 0.12353693
0.13449392 0.05100096 -0.03597785 -0.03923022 -0.08058867 0.1534511 0.07172093 0.18296748
-0.031833746 -0.07041025 -0.09189441 0.24742122 0.13399146 0.10422626 0.027422212 -0.037667207
0.098751016 -0.04008455 0.11032086 -0.00455258 0.058558267 -0.14360692 0.087056756 -0.13135137
-0.1381474 0.07309254 -0.04174619 -0.00059640355 0.031150736 -0.04507391 0.074524134 -0.14276499
-0.22766718 -0.018799456 -0.0030243935 0.05456725 0.06984122 0.079046555 0.22145002 -0.038719263
0.015495963 -0.04979841 0.046824716 -0.10727755 -0.068432696 0.035084277 -0.015017246 -0.015533983
0.10710593 -0.14418744 0.11347749 0.13246022 0.019069916 -0.03758162 0.11892026 0.10278137
-0.15007764 0.019564124 0.22696525 -0.028988454 0.07138689 0.12762833 -0.02834654 -0.08156566
0.08746118 0.010369399 -0.033026427 0.12526578 -0.225862 -0.06737523 -0.1192613 -0.009036419
0.04781926 -0.044234596 -0.03174234 -0.064296946 0.11003681 0.1318031 0.24046321 -0.015912028
0.11428764 -0.076602705 0.10535347 -0.028715875 -0.12363126 -0.09020475 0.04239349 -0.057562202
0.10043192 0.051009893 0.0010996524 -0.09021448 -0.10210516 0.107391186 -0.028836282 0.016288461
-0.084453955 0.040394735 -0.10706593 0.022299692 -0.121108465 0.0077024484 -0.06426513 -0.10646407
0.030786881 -0.116397426 0.11202087 0.18835016 -0.10265278 -0.053324483 -0.06844389 -0.11041481
0.09752206 -0.12968555 -0.053773437 -0.10806037 0.017059151 -0.042946503 0.086927526 -0.042345367
-0.091444224 -0.10743363 0.09677046 0.2290253 0.101529635 -0.01668117 -0.13766426 -0.05990412
-0.18046753 0.06672256 0.014423165 0.021690903 -0.035159394 0.009587722 0.020289391 0.04560018
-0.07002108 0.06536851 -0.05974912 0.12007519 0.023310475 0.051971707 0.05157373 -0.10016153
0.07942848 0.008317124 -0.035555016 -0.13052112 -0.09069281 0.066397145 0.13430405 -0.04687791
0.085292265 -0.15268984 0.18151739 0.13301733 -0.00055239757 -0.022685977 0.024101844 -0.08326363
0.033976916 0.07118175 0.07290921 -0.02629857 -0.008028675 0.07578521 -0.043407764 0.090272896
-0.020262402 0.052946284 -0.1631823 0.11069978 0.14343907 0.07806749 0.0026496314 -0.008770943
0.028979594 -0.09333407 -0.07643387 0.03371399 0.1670647 0.040833343 0.045526247 -0.034033537

rnn.bias_ih_l0 f4 [192]
00000000: 8c08 76bd 263e dc3c e542 49bd 3d41 02be
00000010: 4ff2 d0bd 2344 8b3c 8b2f 203d 7dcc e1bc
00000020: 9202 cfbd 8c97 cebd cb2f 71bd eb81 a2bd
00000030: f49d c0bd b371 ccbd 4eca 013d 28c6 1fbe
00000040: 84f5 b2bd 437a 87be a923 21bd 1559 43be
00000050: d60d a2bd 061a 57be 2ef4 4abd 60c4 43be
00000060: b926 1bbc 0fab e8bd 0f57 d1bd 3b2c 07be
00000070: 7657 98bc 70a1 2abe e32f 8abd 826a 43be
00000080: fb58 0b3e 3795 d1bd a7e3 d53c a829 d9bc
00000090: 0bf2 6d3d d53a e6be 0a97 eabd 7bb7 8bbd
000000a0: c6b6 dcbd 8b89 82be 74ef 40bd a56d 84bd
000000b0: ae6d fcbd e41a 913d cba7 6c3c f8d5 863b
000000c0: 3fc1 8c3d a741 07bd e3ad c23b 8b3b c7bd
000000d0: 454e d63d 7570 a8bc 2ba6 ddbb 0b9a 25bc
000000e0: 1bfb 3abe 538e bdbd 4e99 1dbe 4cb2 c1bc
000000f0: e1ec 77bc a107 923d 1545 e6bd a67a be3d
00000100: fc21 343e 7b10 be3e 40a6 b03e b6fc 8d3e
00000110: 99c7 133e a39d 453e 0023 5d3e 2cee dbbc
00000120: ee43 673e 44ec e83e 0aa2 843d a09f b93d
00000130: f045 ef3e d0a6 be3c 5f57 793e bdca fa3c
00000140: eac6 283e e5a7 363d 351f 763e 2456 893e
00000150: 648d db3d b078 633d be75 e13e 1bfb c33d
00000160: a4e2 c03d c763 0b3e b310 ca3e 994c 31bd
00000170: 5703 0bbd 6c9a 0d3d a0ba a13e 24cf 153d
00000180: b3cc 623e a405 bb3c e382 a43e bed0 b23d
00000190: 104f a43e 4305 f33d 2d7a f43d ee75 c93e
000001a0: 1d07 bd3d 3af0 033e da1e bd3d 2c7b 483e
000001b0: 354f 9d3e 753b c53e 35bd d43e bd45 823d
000001c0: 1f39 2f3d dc03 b43b d20a 293e 9c5c 803e
000001d0: ba69 3a3e 8eff 363b 3b21 913d ef60 283e
000001e0: caff 913e a4a8 973e 487e 793b c3c0 c53d
000001f0: 474b 943e bdb9 e93d ca66 5b3d b47e 573e
00000200: a791 523d e74c f03c f01a 663d d37e 483d
00000210: 73f0 eebc 420f 87bd adfa 7abd 1620 f4bc
00000220: 9dc8 95bd e36a 863c f287 69bc 93df 14bd
00000230: 98aa 093d 41d1 73bd c10f 43bd 3e27 d43c
00000240: cd7b 00bc 2b5e 183b 9714 15bd 1004 9a3c
00000250: 03cf 803d 3993 83bb 1d4d 81bc bf9b 6bbc
00000260: 22c7 3bbd 336d 56bd bbda 4e3d 2249 0dbd
00000270: e03b 2ebd c870 ba3c 6c1e 253d e887 e33a
00000280: 4cf2 043d a100 95bd 7b5a 3e3d 90ad 8cbc
00000290: 8aca 07bd f704 1ebc f8bc 9ebc 483b d3bc
000002a0: f003 243c 10c4 083d c736 bebc 1d02 09bd
000002b0: e582 f7bc 12b7 adbc c79a eabc 8fbd 723b
000002c0: 222f 2cbd aa86 143d a583 443c b0b8 543d
000002d0: 3fe5 4d3d 55fb 89bc f548 0d3d c949 f43a
000002e0: 70b0 07bc 059c 2bbc 8643 74bd 1dfd 523b
000002f0: 83a2 86bc 235e 0cbc 0d24 b9bc f60c 16bd
-0.060066745 0.026885103 -0.04913606 -0.12720199 -0.10202467 0.017000264 0.03910784 -0.027563328
-0.10107912 -0.10087499 -0.05888347 -0.07934936 -0.09405127 -0.09982624 0.031687073 -0.15602934
-0.08738235 -0.26460466 -0.03934065 -0.19076951 -0.07912795 -0.21006021 -0.049549274 -0.1911788
-0.009469681 -0.11360752 -0.10221683 -0.13200466 -0.018596392 -0.16663146 -0.06747415 -0.19083598
0.13608162 -0.102335386 0.02610953 -0.026509121 0.05809216 -0.4496676 -0.1145459 -0.068221055
-0.10777049 -0.25495562 -0.04710336 -0.064662255 -0.12325607 0.07085207 0.014444302 0.0041148625
0.06872796 -0.033021595 0.005941139 -0.09728154 0.104641475 -0.020561436 -0.0067641935 -0.0101075275
-0.18259852 -0.09255662 -0.15390512 -0.023644589 -0.01513216 0.07130361 -0.11243645 0.09300737
0.17591089 0.3712195 0.3450184 0.27731866 0.14431609 0.19298415 0.21595383 -0.026846968
0.22584507 0.45492756 0.06476219 0.09063649 0.46733046 0.023272902 0.24349736 0.030614251
0.1648213 0.04459371 0.24035342 0.26823533 0.107203275 0.05553502 0.44035143 0.09569379
0.09418228 0.13612281 0.39465865 -0.04328594 -0.033938732 0.034571096 0.31587696 0.036574498
0.22148399 0.022829838 0.3213111 0.08731221 0.3209157 0.11866238 0.11937366 0.39347786
0.092298724 0.12884608 0.092344 0.19578236 0.30724493 0.38521925 0.41550604 0.06360958
0.042779084 0.005493624 0.16508034 0.25070655 0.18204394 0.0027923319 0.07086416 0.16443227
0.28515464 0.2962085 0.0038069654 0.09655907 0.28963682 0.1141238 0.053564824 0.21044427
0.051408436 0.029333545 0.056178033 0.048949074 -0.02916739 -0.06594707 -0.06127422 -0.029800456
-0.073136546 0.01640839 -0.014253603 -0.03634603 0.033609957 -0.059525732 -0.047622446 0.025897618
-0.007842016 0.0023249488 -0.03639659 0.018800765 0.06289484 -0.004015353 -0.01578384 -0.0143803945
-0.045844205 -0.052350234 0.050501566 -0.034493573 -0.04253757 0.022758856 0.040312216 0.0017359229
0.032457635 -0.072755106 0.046473008 -0.017172605 -0.03315214 -0.009644738 -0.019377217 -0.025785103
0.010010704 0.033390105 -0.02321948 -0.03344928 -0.030213783 -0.021205459 -0.028638257 0.0037039255
-0.042037137 0.03626124 0.011994277 0.051933944 0.050267454 -0.016843477 0.034493405 0.0018637712
-0.008281812 -0.01047421 -0.059634708 0.0032194324 -0.016434914 -0.008567366 -0.022600198 -0.036633454

rnn.bias_hh_l0 f4 [192]
00000000: 1be8 8fbc b605 2ebd 1363 d93d 461f 0cbe
00000010: 6cc3 0c3b bfae da3d 2466 02bd 6e98 04be
00000020: 7e61 803b 9a2b 4eb9 b5f0 9bbd 1be3 8a3d
00000030: 62d6 02be 7502 a93d 18e7 9a3d 463f 8b3d
00000040: 89e2 a6be 21c6 96bd e503 b3bd fda7 09be
00000050: 107e 17bc b37c 6fbd 6ff6 2cbe 44dc 51be
00000060: ff01 d03d 0646 1abe ab8e c83d 9a0d 7f3d
00000070: 5940 bd3d fb80 4b3c 5ce5 853d bbfd 97be
00000080: 9e43 dd3d 51fb 843d 3390 13be 51c3 22bd
00000090: 6b1a bd3d 49e7 a3be bc96 9ebc 9ed0 a9bc
000000a0: 8c2b d5bd 5ba1 25be 6916 50be 271e 11be
000000b0: e191 503b 9bd8 79bd 3f80 24be ce19 cebd
000000c0: cef6 c2bd 1054 03bd 473b e2bd 2de1 b6ba
000000d0: 3a10 913d bffb 1a3d 3c16 363b 3286 793c
000000e0: e5f6 04bd c36a 40bd 14ed b93d b15e fa3b
000000f0: 8551 97bd c132 dabd ba58 50bd 3b0d e43d
00000100: 6774 333e cfe3 753e 91e4 843e 6f32 8c3e
00000110: ed82 05ba 7ac2 3f3e acfc 973e 8729 083e
00000120: 0bc2 4d3e 173e ad3e 22b7 443c 6e8e a53d
00000130: 0182 b93e 4820 553e 77a5 1b3e ab4d 1c3e
00000140: e7d2 063e f0fa c03d 6cac 123e 6855 823e
00000150: 157b 9e3d 39f7 183e fa07 153f 8555 b53c
00000160: a672 193e c7fa 523e 6b7a ca3e d02e 293e
00000170: 0b85 c93d be41 d63d c71e 993e fbc4 9bbd
00000180: ec8c bf3d d6df 233e 6efd fb3d e52c 7e3e
00000190: 4a0a 8d3e 8e1e 853d 4bfc 4b3e 23a7 ba3e
000001a0: 3df9 af3d ad00 493c 2a9b 05bc aa18 3b3e
000001b0: 1878 c03e f95e d23e 58b9 b73e 6b36 e53d
000001c0: f010 4d3d dd7f 673e c853 e53d 7c19 323e
000001d0: 638b 613d 3815 5f3d 1f0e ea3d 5c9a 4d3d
000001e0: ce3b ef3d 6616 7c3e 9c09 913d e68c 0d3e
000001f0: 3fcf 343e a225 543b 6e18 2a3e c115 8f3e
00000200: b4c4 dfbd 2df8 98bd 8acb e5bd d698 d0bd
00000210: dc1e 383c db6b 9c3d d0cd d83d 5687 15bc
00000220: 7590 123e 3bc0 b1bd 888c b3bc 4bd1 88bb
00000230: a4ee 8cbd 3ffb 473d bb43 8b3d 2061 79bd
00000240: cc59 3f3c 42bc 0cbc e2a7 b93d 160c c2bc
00000250: 7dd8 95bd d6c5 11b8 517f fd3c af9f cd3c
00000260: fd16 183d 1f5b 30bd 6213 9fbd 8d71 883d
00000270: a09e 923d 8d17 4a3d 5358 44bd ab5f 1f3c
00000280: aea4 1dbd b27f f93d a46a 73bd b60c 8c3d
00000290: 45bb 913d 1f91 04bc db96 b3bc 321b fd3c
000002a0: 4c72 0b3c 97a4 9e3c 274c 81bc 8f00 e53c
000002b0: 2b75 963d c6f0 423d 4812 853d 1174 553c
000002c0: 98ff 923d 1967 1a3c 7af0 82bc e809 c0bd
000002d0: 0bf1 85bd 3f7b 433d e5b2 cdbd f5ad d6bc
000002e0: a3d8 be3b 27f9 d1bc 4498 393d 6f99 85ba
000002f0: d563 bd3d a23b b13c 6af0 31bd 3629 0d3d
-0.017566731 -0.042485915 0.106146 -0.13683805 0.0021478785 0.106778614 -0.03183569 -0.12948772
0.003917872 -0.00019661934 -0.076142706 0.06781598 -0.12777093 0.08252422 0.07563609 0.06799178
-0.32594708 -0.07362009 -0.08740977 -0.13442989 -0.009246364 -0.05846853 -0.16890882 -0.20494181
0.10156631 -0.15065774 0.09792837 0.06226883 0.09240789 0.012420888 0.065378875 -0.29685768
0.108039126 0.06493247 -0.14410476 -0.03973705 0.092335545 -0.32012394 -0.019358985 -0.02072936
-0.104086965 -0.16174833 -0.20321049 -0.14171658 0.0031825232 -0.060997587 -0.16064547 -0.100635156
-0.095197305 -0.03206259 -0.110464625 -0.0013952606 0.07083173 0.03783774 0.0027784249 0.015229749
-0.03246202 -0.046976816 0.09078422 0.0076406826 -0.073885955 -0.10654212 -0.050865866 0.11135336
0.17524873 0.24012683 0.25955632 0.27382228 -0.0005093057 0.1872653 0.2968496 0.13297091
0.20093553 0.33836433 0.012006553 0.08083807 0.36231998 0.20813096 0.15199839 0.15264003
0.1316639 0.094228625 0.14323586 0.25455785 0.0773832 0.14938058 0.58215296 0.022135505
0.14985141 0.20603476 0.39546522 0.16521764 0.09839829 0.10461758 0.29906294 -0.076059304
0.093530506 0.16003355 0.12304197 0.24821813 0.27546912 0.064999685 0.19920461 0.3645564
0.0859246 0.0122682275 -0.00815467 0.18271127 0.37591624 0.41088083 0.35883594 0.1119202
0.05006498 0.2260737 0.11197621 0.17392534 0.05506457 0.054463595 0.11428475 0.050196037
0.11681329 0.2461792 0.07081911 0.1382328 0.17657183 0.0032371064 0.16610882 0.27946284
-0.1092619 -0.07469211 -0.112204626 -0.10185401 0.011237826 0.07637759 0.105861306 -0.009126505
0.14312918 -0.08679243 -0.021917596 -0.0041753403 -0.068814546 0.04882359 0.06800028 -0.06088364
0.011679124 -0.008589806 0.09065224 -0.023687404 -0.073166825 -3.4754943e-05 0.030944498 0.025100557
0.0371313 -0.04305565 -0.07767369 0.06662283 0.071591616 0.049338866 -0.047935795 0.009727399
-0.03848713 0.12182559 -0.059427872 0.06838362 0.07115797 -0.00809124 -0.02192252 0.030896757
0.008511137 0.019365592 -0.015783383 0.027954368 0.07346567 0.0475929 0.064976275 0.013028161
0.07177657 0.009423994 -0.015983809 -0.093768895 -0.06540116 0.04772496 -0.10043887 -0.026205996
0.005824165 -0.0256315 0.045311227 -0.0010192822 0.09247557 0.02163488 -0.043442167 0.03446313

temporal_attention.weight f4 [1, 128]
00000000: 581f 773d fde6 95bd 8ea3 2d3d 4fcf 3ebd
00000010: e64b 6a3d a6f2 23bd 1259 babb bde5 4b3d
00000020: f0a9 493d 0b6a 003c d875 56bd 6f65 a93d
00000030: 8452 69bd d6fb ea3b 2427 85bd 57d2 6db9
00000040: 5431 28bd 5432 a73c f15e 73bd b215 b1bd
00000050: 8e83 893d ed00 203d 7c73 cb3c 183f afbd
00000060: c3fb 07bd 2d4a a43d 73fd e33c a860 82bd
00000070: 5d9b 7e3d 72a7 c7bc 43ec 933d 1ecd d1bc
00000080: 1a1d 963d 6ac3 94bc 826f d8bc deab 1aba
00000090: cc11 f7bc a7d7 86bd 8476 f23b b762 7c3c
000000a0: 9289 453d c71d 03bd 2cb6 81bd d00f d1bc
000000b0: c689 81bd d109 b3bd ab2f 01bd 87da 7dbd
000000c0: 6bd8 6a3d 38e5 fbba 154d 093c a690 a1bd
000000d0: bc69 e93c a8a4 793d 237a a43c d305 583d
000000e0: 7539 783d bad0 87bd 496e 3d3c 78f2 67bd
000000f0: f2dc 7c3d b641 7d3d c950 163d dd74 173d
00000100: 0a66 31be bc86 17bf d081 51be f6a4 cd3e
00000110: bd55 8f3e 7950 0e3f 7e0a 08bf 4b9e 043f
00000120: dc5e 14bf 1983 8fbe 49c3 023f ca47 02bf
00000130: fc73 4cbe d435 2a3f e9ad c9be 6bee 133e
00000140: 481b 033f c555 ffbe b045 a5be 0cac 4a3e
00000150: 3309 083f cee8 aa3e 1027 f93e e7de 29be
00000160: 7818 4f3e 8a5e 053f 70e5 b13e aab6 9abe
00000170: d030 be3c d44b ecbe 6edf 0c3f 02f7 8c3e
00000180: 5e95 b93e 561c da3e cabb 20be d789 933e
00000190: 2f6f c2bd 8256 d43e 44ed f43e 9f80 88be
000001a0: dcbe 5abe 0b2c 23bf 3b61 ea3e cc9d c4bd
000001b0: b8b5 b03e d026 e7bd 74bb 043f a6bf b53d
000001c0: 3c14 dfbe 2769 903d bd29 d9be 1098 173f
000001d0: 9ae3 89be 256a b9be a3d3 eb3e 5627 e93e
000001e0: 76a3 f0be 943e f3be da4d 083f 2420 68bd
000001f0: e530 75bd 33ef 80be 4abf ea3e 2de9 c2be
0.060332626 -0.07319448 0.042392306 -0.046584424 0.05720129 -0.04002633 -0.0056868875 0.049779642
0.04923433 0.007837783 -0.05235848 0.082713 -0.05696346 0.0071711345 -0.06501606 -0.00022680439
-0.041062668 0.02040974 -0.059416715 -0.08646716 0.06714545 0.039063383 0.02483534 -0.08556956
-0.033199083 0.080219604 0.027830815 -0.06366092 0.062159885 -0.024371836 0.07222798 -0.025610503
0.073297694 -0.018159587 -0.026420359 -0.0005900244 -0.030159853 -0.06584101 0.007399382 0.015404395
0.0482269 -0.03201082 -0.06333575 -0.025520235 -0.06325106 -0.08742107 -0.0315396 -0.061975982
0.0573353 -0.0019218093 0.008380194 -0.078889176 0.0284928 0.060948044 0.02007777 0.05273993
0.06060167 -0.06631608 0.011561939 -0.05662772 0.061734147 0.061830245 0.036698136 0.036976684
-0.17324081 -0.59189963 -0.20459676 0.40164918 0.279951 0.5559154 -0.5314101 0.51804036
-0.57957244 -0.28029707 0.5107923 -0.5089079 -0.1996612 0.66488385 -0.39390495 0.14446418
0.512135 -0.49870124 -0.3227973 0.19792193 0.53139037 0.3338074 0.48662615 -0.16588937
0.20224178 0.5209738 0.3474536 -0.30217487 0.023216635 -0.46151602 0.55028427 0.27532202
0.3624677 0.42599744 -0.15696636 0.288161 -0.09493863 0.4147225 0.4783727 -0.2666063
-0.2136187 -0.6373908 0.45777306 -0.0960041 0.3451364 -0.112867 0.5184853 0.08874445
-0.43570125 0.07051306 -0.42414656 0.59216404 -0.2693146 -0.36213794 0.46059904 0.45537823
-0.4699971 -0.4750868 0.5324379 -0.056671277 -0.059861083 -0.25182495 0.45849067 -0.38068524

rnn.weight_ih_l0 f4 [192, 1]
00000000: 4d6d 71be 265e 01bf 14e5 a4bd 647a 093e
00000010: 0057 31be 669d 2cbc f769 c43e cdc2 e0be
00000020: 8ed0 f63c 0495 733e f501 38be 5018 4ebe
00000030: 4be6 6f3d 21e1 b3be c247 f6be 3054 e03e
00000040: e565 5e3d b805 b9be c268 f0be 8178 ac3e
00000050: 7e68 a9be 8636 03bf 5ed4 0bbf 58cb 70bd
00000060: 908e b33e 25b6 0cbf 7e4f 39be 0c4e ebbc
00000070: 18e9 ec3d 1ed3 3e3e d494 f13d 64e7 3d3e
00000080: d37f a83e 1da2 c5be 36d1 aebe 60d6 8fbe
00000090: 9169 b53e 792c ba3d 07a1 d6bc 865e 28bf
000000a0: c946 f73e 2dbf 773e 1f85 053e 5a0a 0abf
000000b0: 8d72 b63e d1ed a2be 6a6a bb3e 362c 263e
000000c0: 3788 0fbe ae4a c9be bca2 5abe 11ce 0cbf
000000d0: d17d c2bc 996a ac3d 1740 55be b353 f0bd
000000e0: 8e51 023e ef4f bd3e 6e70 5e3c a5da 97be
000000f0: fc0b fcbe 4068 c5be ae9c 33bd 141a a2be
00000100: 37bb 18bf 36b6 afbe 548b 96be 8119 3abf
00000110: 6155 f4be 51d1 0abf ed7a f5be 8751 66be
00000120: 7691 29be d286 dfbe c883 66be e6b0 3abf
00000130: c474 8abe bde9 ac3e cb60 c1be 431e 31bf
00000140: 484b 8dbe 573e d13e d597 64be 78e0 2abf
00000150: e22c 60be 0cb2 01bf b393 e3be e4db 8ebe
00000160: 51fc 603e 1ac6 e7be 7055 69be 23a2 90be
00000170: 1a6b 843d ecdf 55be 784d 26bf 0d4f a13d
00000180: 17aa ddbd ccaa 54be 9388 0abf 2b5a 083f
00000190: fe7e 5fbe 7caf 4f3d fb5f c8be cbfd fcbe
000001a0: 12c6 f2be db4d ccbe d70c 0ebd 718f 8f3e
000001b0: dd32 1fbd de5d c6be f8f4 1bbf 5902 a3be
000001c0: 17cd 8f3d 6e88 8a3e 41a6 813e 253e e5be
000001d0: 4deb a7be 5fff e6bd ed3e 0b3e 5c87 0ebf
000001e0: 807e 09bf e901 cbbe 1a4b 19bf 1613 b4be
000001f0: c16a 83be 674b bb3e 668f bd3e f7c7 22bf
00000200: b579 523e c4ca 5dbd 4b42 e3be 99c3 bb3e
00000210: 1ac0 493e c6c3 cc3e 0c9b e23e 4be4 bcbe
00000220: 1663 42be e264 f13e 9882 17bd e9b3 a33e
00000230: 41bf 53be 2cd8 96be ccad c9be 17a2 05bf
00000240: 79d2 263c 373d 6abe d0f4 43be 8620 89be
00000250: ab09 6f3e 8956 d9be 10b6 f13e 4248 f6be
00000260: 216f a5be fe2b 9d3e 314c 073e b068 993d
00000270: ae75 94be a310 8ebd b4c4 5dbe 03d8 99be
00000280: b4c6 903e 2e11 153f 7571 00bf 4270 07bd
00000290: 60d6 e6be dffb b73e eef8 63be 9128 fa3e
000002a0: 6581 d6be 2e38 793e 17c7 edbd 64d0 b5be
000002b0: 13af e93e adf5 b93e 4ff7 083f 7cca f63e
000002c0: 4dcc 41bc 3e26 f9be 9a06 17be 92d3 09bf
000002d0: b76b 0b3d 661d 1bbd 5e04 58be 0558 bf3e
000002e0: 6c15 febe f4eb 843e 15da da3e b622 a13e
000002f0: 736d fa3e 6c4f cdbe 0ca6 fd3e d727 d03e
-0.23576851 -0.50534284 -0.08051506 0.13425595 -0.17318344 -0.010535574 0.38362095 -0.4389862
0.030128743 0.23787314 -0.17969497 -0.20126462 0.058569234 -0.35132697 -0.48101622 0.4381423
0.054296393 -0.36137176 -0.46954924 0.33685687 -0.33087534 -0.5125507 -0.5462092 -0.058787674
0.35069704 -0.5496543 -0.1809673 -0.02872374 0.115678966 0.18635222 0.11795965 0.185453
0.32910022 -0.38600245 -0.3414399 -0.28093243 0.35432103 0.09090514 -0.02619983 -0.6576923
0.48296192 0.24194022 0.13039063 -0.53922045 0.3563427 -0.31822065 0.36604625 0.16227803
-0.14016806 -0.3931479 -0.2135114 -0.5500193 -0.023741635 0.084187694 -0.2082523 -0.11734714
0.12726423 0.36975047 0.01357661 -0.29659 -0.49227893 -0.385561 -0.043850593 -0.3166052
-0.5966067 -0.34318703 -0.29403174 -0.72695166 -0.4772139 -0.5422564 -0.47945347 -0.22492038
-0.16559395 -0.43657547 -0.22511208 -0.72926176 -0.2704221 0.33772078 -0.3776916 -0.691868
-0.27596498 0.40867874 -0.22323544 -0.6674876 -0.21892121 -0.506623 -0.44448623 -0.27902138
0.21971251 -0.45268327 -0.22786498 -0.282487 0.064657405 -0.208862 -0.6496196 0.07876406
-0.10823458 -0.20768279 -0.54114646 0.53262585 -0.21825787 0.050704464 -0.39135727 -0.4941238
-0.4741674 -0.3990315 -0.034680214 0.28039125 -0.038866866 -0.3874349 -0.6092067 -0.3183773
0.0702154 0.27057213 0.25322154 -0.44773975 -0.32796708 -0.11279177 0.13598223 -0.5567529
-0.5370865 -0.39649895 -0.5988022 -0.3517081 -0.25667384 0.36580965 0.37023467 -0.6358637
0.2055424 -0.05414845 -0.44386515 0.36672667 0.19702187 0.39993113 0.44258916 -0.36892924
-0.18983111 0.4714728 -0.03698978 0.31973198 -0.20678426 -0.294618 -0.3939041 -0.52200454
0.0101820165 -0.22874914 -0.19136357 -0.26782626 0.23343532 -0.42448834 0.47209215 -0.48102003
-0.32311347 0.30697626 0.13212658 0.07490671 -0.28996032 -0.06936767 -0.21657068 -0.30047616
0.28276598 0.5822934 -0.5017312 -0.03306604 -0.4508543 0.3593435 -0.22262928 0.48859075
-0.41895595 0.24337837 -0.11610239 -0.35510552 0.45641384 0.36320248 0.5350236 0.48201358
-0.011828494 -0.4866199 -0.14748612 -0.53838456 0.03403827 -0.037869833 -0.21095416 0.3737184
-0.4962572 0.25961268 0.42744508 0.31471795 0.48911628 -0.40099657 0.49540746 0.40655395

rnn.weight_hh_l0 f4 [192, 64]
00000000: 44c4 c4bd b8b0 fb3d b51a f93d c3ac 83bd
00000010: 72a0 363d b0f6 b53d 8d40 11be 20bc d93c
00000020: 68a3 fe3d 80ee f2bd 9e5d 21be 31df 69bd
00000030: d996 31bb a28e 8abe 3688 8b3d 13c8 073d
00000040: ae73 023e e134 19be 345f 263e bc71 3dbe
00000050: ead9 07bd 6fe3 de3d 5605 853c f1fa 773e
00000060: 0a3a 45be e4f2 75be a24f 9cbd 3c75 53be
00000070: f195 253c e56e 1dbe c806 f9bc 5aea b1be
00000080: 2337 0b3f 6e1a c8bd 74de 0dbd 942e 2bbe
00000090: fdaf b63d 44fd 033f 7eb9 2abe 7c73 78be
000000a0: c8c8 243d eba1 603d 833d 8ebe 519d 1cbe
000000b0: 6892 fa3d 537b 85bc f096 60be 5fab 48be
000000c0: 9ca3 5a3d 3ad9 4b3d 1377 91be 34d5 6e3d
000000d0: 4033 253e b38e 86bd 6325 c3be 6d2f 3dbc
000000e0: ff1d 143e 9b4c c33d 5577 9cbe 6303 0abe
000000f0: 59ff dabd 87e0 053d e91a b53e eb9d d5bd
00000100: 59a4 6cbe 3caa 6a3e 7ab7 b83e 5337 65be
00000110: 1d08 a53d 8826 aebd 046d 7d3c 6fd4 75bd
00000120: f3c8 b43e 9f13 53be 65be 573d d4e7 9bbc
00000130: 52a7 dc3c 738a bebd afd7 923d 2552 b73d
00000140: 316e 34bc b574 bcbd 6b33 743e 4824 22bc
00000150: b6e1 ffbb ef56 7c3d 5667 b4bd 4c72 893e
00000160: d698 32be cb56 d3be eda4 b1bd 7678 8cbe
00000170: 0cd3 0c3e a99d d2be bc16 fd3c 5089 45be
00000180: 137a 443e 0864 bebe b4b7 1a3e 56c9 ab3d
00000190: 39e2 243e 99ce f73e a892 e9bd 9650 41be
000001a0: eb74 a5bd b7c4 9b3c 1ac5 a5be df21 a1bd
000001b0: 3e8c 723e 1b13 fdbd 26ec 1bbe 494c 54bd
000001c0: 1fb7 1abd e8ee 343e a0ee 8fbd ef7c f83d
000001d0: 535f 263e 3f4f a3bd 4a6d d4be fd28 0bbe
000001e0: cd1d 7e3e 46f3 9cbc 143d cebe 3563 9abe
000001f0: f035 72be 92cd 813d 2d8d de3e 47c2 c2be
00000200: b9b8 12be e140 6e3d 0dd1 5d3e 98f7 e13b
00000210: 3467 a2bc ffde 863d 872d 0abd f2de b1bd
00000220: abd0 1b3c 7d2e 29be e4ff 2fbe b1db d8bd
00000230: 7d61 443e c598 cabd 5d7a 00be cb62 563d
00000240: 13e6 283d 2fa8 c43d f7c6 3e3c 6a01 993b
00000250: a454 283d aec6 883d d743 f93c f20c ce3d
00000260: de96 96be aab6 6ebe af0b 91bb 6bb5 8f3d
00000270: 1883 563e e821 46ba 0e9a 503d 404f 24bc
00000280: ee26 533e 3f83 d6bd a40b aa3d 7dc4 22be
00000290: 6670 a43c 6421 553e e2c1 28be cfdd 2b3c
000002a0: 49e5 d93d 0ccd 5fbd 0ac6 e3bd b357 0abd
000002b0: 3d1c 77be 5289 913b de30 38be 8fde 4bbd
000002c0: bee2 a4bc ff71 ec3d 02c1 a2be 6383 543e
000002d0: 10c4 2d3e 5634 b4bd 23ee dcbe 1681 2dbe
000002e0: 04a9 703e aacc bbbd 8fbf 1cbe 9920 6dbe
000002f0: 2c9c c8bd b403 ca3b 4639 d53d 9cb8 f5bd
00000300: 098b d2bd 2d42 8a3d abf5 d2bd 6333 b0bd
00000310: 0d50 4b3d 58f0 333e 9058 1a3e 18e7 3cbe
00000320: a40c 263d 5ba6 3b3e 7dd1 5f3e a8f2 743e
00000330: 4915 95bb fccd 9f3e fbc8 5fbd 31cc 353e
00000340: ea86 9cbe b881 0cbe bdb0 083e e5f3 9cbe
00000350: 9d16 823e cffc acbe 880b e83d 840c f23d
00000360: 8f3c e23d d26f 0fbe 6d4e 80bb bdeb 633c
00000370: 076c f2bd fcd1 0d3e 68bd 83be ee06 c4bd
00000380: e06d 1cbe b30d 323e 0bc7 18be 5e71 493e
00000390: f459 99be 1220 6dbe 281e eabd ef58 7abc
000003a0: 741d 8ebe c312 6d3e 2556 6c3d 91c6 883d
000003b0: cca8 ab3e 97a2 513e 1a92 713e 8ad5 863e
000003c0: 2e3b 12be 301f 613e 9cbb 8a3e ac55 8dbd
000003d0: be4d 35bd 6ff6 7f3d 36b3 bd3d c333 efbc
000003e0: 5471 be3d b3df 8e3e a243 373b 3b87 5bbd
000003f0: 1550 dc3d 43c8 64bd ca24 6d3e 5dc9 a3bc
-0.09607747 0.12289566 0.12163297 -0.06429436 0.044586606 0.088849425 -0.1418478 0.026578963
0.12433511 -0.118618965 -0.15758368 -0.057097618 -0.002709797 -0.27061945 0.068130895 0.03314979
0.12739441 -0.14961578 0.16247255 -0.18500417 -0.033166803 0.10883223 0.016237896 0.2421682
-0.19260421 -0.24018437 -0.07632376 -0.2065019 0.01010655 -0.15374334 -0.030398741 -0.3474911
0.54381007 -0.09770666 -0.034635976 -0.16716987 0.08920286 0.5155833 -0.16672322 -0.24262804
0.040230542 0.054841917 -0.27781305 -0.15294386 0.12234956 -0.016294157 -0.21932578 -0.19596623
0.053378686 0.04976771 -0.2841116 0.058308795 0.16132832 -0.065701865 -0.3811446 -0.011546952
0.14464568 0.09536096 -0.30559793 -0.13477854 -0.10693235 0.03268483 0.35372093 -0.10430511
-0.23109569 0.22916502 0.36077482 -0.22384386 0.08058188 -0.08503443 0.015467886 -0.060017046
0.35309562 -0.20612954 0.05267181 -0.019031443 0.026935253 -0.09303751 0.07170045 0.08951215
-0.0110126 -0.092019476 0.2384774 -0.009896345 -0.0078088893 0.061606344 -0.08808772 0.26845014
-0.17441115 -0.41277155 -0.08674035 -0.27435654 0.13752383 -0.4113591 0.03089463 -0.19290662
0.19187193 -0.37185693 0.1510914 0.08388011 0.16101922 0.4839981 -0.114049256 -0.18878397
-0.08078941 0.0190147 -0.3237694 -0.078677885 0.2368631 -0.1235716 -0.15226802 -0.051830564
-0.037772294 0.1766926 -0.07027936 0.12133204 0.16247301 -0.07974099 -0.4148963 -0.13589855
0.24816056 -0.01915897 -0.40280974 -0.30153814 -0.23653388 0.063380376 0.43467084 -0.38038847
-0.14328279 0.058167342 0.21661778 0.0068959706 -0.019824602 0.06585502 -0.033734825 -0.086851016
0.0095102 -0.1652164 -0.17187458 -0.10588778 0.19177814 -0.0989242 -0.12546678 0.05234031
0.04123504 0.09602391 0.011644117 0.004669358 0.041096345 0.0667852 0.030427856 0.10061063
-0.29411978 -0.23311868 -0.0044264416 0.070170246 0.20948446 -0.0007558153 0.050928168 -0.01002866
0.20620319 -0.10474252 0.083030015 -0.15895267 0.020073127 0.20813519 -0.1648021 0.010489895
0.10639436 -0.054638907 -0.11121757 -0.033775043 -0.24131866 0.0044414187 -0.17987391 -0.049772795
-0.02012765 0.115451805 -0.31787878 0.20753245 0.16969323 -0.08799045 -0.43150434 -0.16943774
0.23501974 -0.09169896 -0.15307449 -0.23156966 -0.097954124 0.006164992 0.10411315 -0.11998102
-0.10280425 0.06750903 -0.10300764 -0.08603551 0.04963689 0.17572153 0.15072846 -0.1844753
0.0405394 0.18325178 0.21857257 0.23920691 -0.0045496565 0.3121184 -0.05463503 0.17753674
-0.3057168 -0.13721359 0.1334867 -0.30654827 0.25407878 -0.33786628 0.113303244 0.118187934
0.11046707 -0.140075 -0.003915599 0.013911185 -0.11837011 0.13849634 -0.25730443 -0.09571634
-0.15276289 0.17388038 -0.14919679 0.19672152 -0.2995144 -0.23156765 -0.11431533 -0.0152799925
-0.27756846 0.23151688 0.05769934 0.066784985 0.3352722 0.2047218 0.2359089 0.26334792
-0.14280388 0.21984553 0.2709626 -0.06901106 -0.044263594 0.062490877 0.092626974 -0.029199487
0.092989594 0.27905044 0.0027963896 -0.053595763 0.10757462 -0.055855047 0.23158565 -0.019993478

rnn.bias_ih_l0 f4 [192]
00000000: 4118 37be 09f9 3dbe 1b18 74be 8208 08be
00000010: 5210 91bd 78b5 8dbe ed03 77bd b460 3dbe
00000020: ec03 a7bc 5398 14be 3ef1 273e a717 98be
00000030: dd72 37bd 7de7 10bc 7df3 48be c9bd 43be
00000040: 1e64 a6bd 4288 923d 31f0 bcbd 5a2e 75bd
00000050: dc27 fabc d29f 043d fee6 6ebe b79f 7fbe
00000060: 32e9 6abe 89e8 1b3d fd92 cf3c 2007 ffbd
00000070: a899 59bd 82a3 183e 5df1 bbbc 4d68 a6bc
00000080: be35 57bd 7ac5 f2bd 5fdf 0fbd dd96 2b3e
00000090: 9382 85bd 04d4 693d 69d7 0fbd a875 81bd
000000a0: 85dd 0ebe 4b58 603d cd8a 043e 39d1 283d
000000b0: bde3 a23d 5c10 65be 7c89 2fbe 20fd 48be
000000c0: 880a 1dbe fc6c ad3c a1cd 463c 0664 53be
000000d0: 45c2 72bd 860b 9f3d bdf7 dc3d d390 3d3c
000000e0: 1e6c 4abe 0bdc 413d 9c9a 26be 128a 3dbe
000000f0: b32b 43be c63c e9bd dd39 f23d a807 dabd
00000100: 5d59 183e d3b4 243e 0e95 c03e 8bb6 183e
00000110: c9b3 1c3e 0ce7 aeba e357 2d3d b456 4a3e
00000120: a0af ca3e 268a f0bb 5851 efbd de50 143e
00000130: cb6c 223e ded4 efbe 7356 913e e2db 953e
00000140: 32a2 b6bd e90a 9bbe bce6 bd3e 18c8 3c3e
00000150: 7620 b43d 3672 a13e e362 463e c9d2 163e
00000160: ff92 273e ab56 0e3e 00d4 c13e bbb2 613d
00000170: b64f 1fbd c9c6 1d3c 3196 223e 906e 26be
00000180: 9a23 16be ca6f 233e 7039 5d3e 014c 3ebe
00000190: 83aa 2c3e 6e25 e3be 3cff 84bd 4008 293e
000001a0: c89b 3f3e 60df a43c 7459 32be 261a a1be
000001b0: f7d4 69bd 5392 683d ab99 6f3d c42d 123e
000001c0: 4587 113e 0211 a7be 4078 76be 5196 eb3d
000001d0: 5403 553e 984e 003e 2f4d 02be a8a6 b13e
000001e0: 58cb 143e a9d4 293d c6e8 5e3e 79e9 093e
000001f0: 942d 703e 3c76 f3bd 02c7 bbbe aa29 ee3d
00000200: f01d 453d 4b1d 9abc 0933 0bbc 545b 723d
00000210: 3de0 d93c 5f1e fdbc ab14 1abd e4fd 093d
00000220: 7704 33bc 0f38 1fbd 6921 0ebd 216c 98bb
00000230: cd81 10bb da01 92bd 6eee 193d 8845 8dbd
00000240: 9152 b33c b49f 94bd 5282 b0bc 01d0 6b3d
00000250: b9a5 2dbd 75a5 07bd edd4 bbbc 9f0b dabc
00000260: b9b5 21bc 037c 733d 0e19 6639 975e 193b
00000270: 9150 083d 7902 083d 553a 5a3d f33a d73c
00000280: 8023 7fbd e3d8 513d 59f1 323d 50c5 96bd
00000290: cf98 903d 34a4 38bd cddd 413c 2fbb a63d
000002a0: 5619 953d f556 98bd eec9 773d 4f47 c7bc
000002b0: 771d 95bd 03c8 9abc 39b9 5dbd 242f e9bc
000002c0: 26c2 e2bb 81eb 5dbd 7234 fabc b8e6 24bd
000002d0: d2d2 b93c fd5f b93c b603 57bd 1f93 4e3d
000002e0: 15a6 79bc 4550 85bd 5cbe 17bc 78e8 c83c
000002f0: cf25 913c dc84 53bd 0496 cfbc a6e2 d43c
-0.17880346 -0.1855203 -0.2383732 -0.13284495 -0.07083191 -0.27677512 -0.06030648 -0.1849392
-0.020387612 -0.14511232 0.1640062 -0.29705545 -0.044787277 -0.008844254 -0.19624133 -0.19115366
-0.081245646 0.07154895 -0.092255004 -0.059858657 -0.030536585 0.03237898 -0.23330304 -0.2496327
-0.2294052 0.03806356 0.025338644 -0.12452531 -0.053125054 0.14906123 -0.02294224 -0.020313406
-0.052541487 -0.11854072 -0.035125133 0.16756769 -0.06519046 0.05708696 -0.03511754 -0.06321269
-0.1395169 0.054771703 0.12943573 0.041215155 0.07953594 -0.22369522 -0.1714229 -0.1962781
-0.15336049 0.021170132 0.012133987 -0.20643625 -0.0592673 0.0776587 0.1078944 0.011570173
-0.19767806 0.04732899 -0.16269916 -0.18509701 -0.19059639 -0.11388545 0.11827443 -0.106459916
0.1487784 0.16084604 0.3761372 0.14913385 0.15302958 -0.0013344004 0.042320143 0.19759637
0.39587116 -0.0073406873 -0.11685437 0.14483973 0.15861814 -0.46842092 0.28386268 0.2926932
-0.08917655 -0.3028176 0.370901 0.18435705 0.08795254 0.3153245 0.1937366 0.14728846
0.16364668 0.13900249 0.37857056 0.05510209 -0.038894378 0.009629914 0.15877606 -0.16253114
-0.14662018 0.15960613 0.21603942 -0.1858368 0.1686192 -0.44364494 -0.064939946 0.16507053
0.1871177 0.020126045 -0.17416936 -0.31465262 -0.057087865 0.05678017 0.05849616 0.1427527
0.14211757 -0.32630163 -0.24069309 0.1150328 0.20802051 0.12529981 -0.12724756 0.3469746
0.14530694 0.041462574 0.21768484 0.13467969 0.23454887 -0.11887786 -0.36675268 0.116290405
0.048124254 -0.018812796 -0.008496054 0.05916913 0.026596183 -0.030898271 -0.037617367 0.033689395
-0.0109263575 -0.03887182 -0.03469983 -0.004651562 -0.0022050024 -0.071292594 0.0375809 -0.06898028
0.021889957 -0.072570235 -0.021546517 0.057571415 -0.042394374 -0.033116776 -0.02292868 -0.02661687
-0.009869986 0.05944444 0.00021943843 0.0023402327 0.03327996 0.033205483 0.053278286 0.026273226
-0.062289715 0.05123223 0.0436872 -0.07361853 0.07060396 -0.04507847 0.011832667 0.08141171
0.07280223 -0.07438461 0.06049531 -0.024325995 -0.072810106 -0.018894201 -0.05413172 -0.028464861
-0.006920117 -0.054179672 -0.030542586 -0.040259093 0.022683535 0.022628779 -0.052493773 0.050433274
-0.015237351 -0.06509451 -0.009261694 0.024524912 0.017718224 -0.051640376 -0.025340088 0.02598698

rnn.bias_hh_l0 f4 [192]
00000000: 3d51 17be 2a18 2ebe 3864 1abe 20f9 3bbe
00000010: a5b8 4cbd d2ff 84be 3a1c 3ebe 1119 77be
00000020: 9756 13bc 14a8 f6bc c9e6 1e3e f9f0 18be
00000030: 48f1 46be 924b c93d d029 ecbd 444a 95be
00000040: 3528 fb3c 188e 87bb e3d7 c3bd 1257 c83d
00000050: 3584 02be 42c0 51bd f530 51be b0a5 c2be
00000060: e440 61bd 8f28 6abd 8d35 743c 0533 45be
00000070: ccbb 47be 59f2 6f3e bfcd 2ebe 26ed c23c
00000080: 41e1 dcbd 6043 e5bc 92c0 0bbe 3232 9abc
00000090: 5ddf acbd c436 4b3e 26a9 1abe 0dbf 4f3d
000000a0: 8eb5 6b3d ea69 843d f06e d1bd 916a 1abd
000000b0: 70fb d03d eedc cebd bd87 7cbd aca7 bdbd
000000c0: 0bb6 b33d a5b0 fabd 6a9a 933d b3a4 3ebe
000000d0: 2f68 d5bd fd6a 4c3d 2e9a debd 5917 5fbc
000000e0: 41ac 25be b6bb 1dbc a632 2cbe 0769 8bbe
000000f0: 2cc2 07be c130 1dbe 59ef 26bd 271e 81bd
00000100: e2cd 1b3e e76c 043e 05ed ce3e 38dc 8a3e
00000110: 2e4b d63d fe56 0e3e 0357 7f3e 2681 673c
00000120: 687e cf3e 725c da3d 58c1 17be 5726 8a3e
00000130: b36f 823d b819 d5be 0268 373e 09d7 0f3e
00000140: f4f9 d03d 3a00 77be 5409 073f 5ea4 b73d
00000150: 02fc 073e 496e 593e 3667 923e f658 233e
00000160: 473c 723d 43ef ad3e 10d6 f83e 9c8d 953e
00000170: e1d8 313d ae37 cebd cb00 533e eb7e a2be
00000180: 2033 17be 2507 c93d c8e8 9a3d 8cfa dbbd
00000190: a4b0 5b3d 1d23 08bf 7fa3 cd3c d3d2 773e
000001a0: 89ae 313e 009e 0a3e 166f 72be 2130 2ebe
000001b0: 4f3f 10be 35d8 e53d 6b04 283e 3332 913d
000001c0: 376b d23d 5e8a 09be f437 19be b75f ed3d
000001d0: 574c 073e da36 a9bc e270 bbbe e50a c83e
000001e0: 155a b53d 8b7a 883e 06eb 123e 2191 363e
000001f0: d5c4 663e 40b3 48be eaf1 44be 9ff7 913e
00000200: f07c 28bd 35a7 3f3d 8cf3 3bbc 3544 b0bd
00000210: 9b00 9cbd 7a8d c93b 4af9 4e3d 2d10 09bc
00000220: 4b86 1bbd 5263 a63d 376a 103c 160e 04bc
00000230: 19c7 5f3c b499 9b3d 84ed 953c aaa6 0abd
00000240: 65e0 1a3d 0d50 e33d 8511 993c d85c 64bd
00000250: f8d7 5dbc 7901 ca3d 4fbd dfbc ed9a 183c
00000260: 2f4a b13b 2c03 60bd f452 e83c 40c2 773d
00000270: 0309 d7bd 2d50 f9bc d9f6 d5bd 20cd 98bc
00000280: 2449 eb3d 8916 88bd 00d1 233d 507b 913d
00000290: b7d1 0ebe e35d 343d b799 fc3c 7765 c5bd
000002a0: f833 0abe e468 d83d 15a5 06be 4c1c c63c
000002b0: 3dfa 87bc bce6 673d 6ce8 e83d 9ac7 f03c
000002c0: 981d f83c aa56 bb3c 21fa 823b 688f 943d
000002d0: 749a 09bd 9fdf e1bc dc71 9b3d 723e f2bc
000002e0: e9ee 6abd 5e9c 843d d9de 4c3d f72b 05bd
000002f0: a545 38bd 9420 943d 617a f2bc c263 1dbc
-0.14777084 -0.17001405 -0.15077293 -0.18356752 -0.04998078 -0.25976425 -0.18565455 -0.24130656
-0.008992813 -0.030109443 0.15517725 -0.14935674 -0.19427979 0.09828867 -0.115314126 -0.29158223
0.03065882 -0.004136812 -0.095626615 0.09782232 -0.12745745 -0.051208742 -0.20428832 -0.38017035
-0.054993525 -0.057167586 0.014905346 -0.19257744 -0.19505233 0.23432292 -0.17070673 0.023794722
-0.10785151 -0.027986228 -0.13647678 -0.018822763 -0.08441041 0.1984511 -0.15103588 0.05071931
0.05754619 0.06465514 -0.10226238 -0.037699286 0.10204208 -0.10100733 -0.061652888 -0.092604965
0.08774956 -0.122407235 0.072071865 -0.18617515 -0.10420262 0.04990672 -0.10869251 -0.013616406
-0.16178991 -0.009627273 -0.16816196 -0.27228567 -0.13257664 -0.1535063 -0.040755603 -0.06304579
0.15215257 0.12932168 0.40415207 0.2712114 0.10463558 0.13900372 0.24935536 0.0141299125
0.40526128 0.10662164 -0.14819849 0.26982376 0.06368961 -0.41621184 0.1791077 0.14046873
0.10203925 -0.2412118 0.5274861 0.089668974 0.13279727 0.21233477 0.2859437 0.15951905
0.059139516 0.33971605 0.48600817 0.29209602 0.043419722 -0.10069214 0.20605771 -0.31737456
-0.14765596 0.09815816 0.07563931 -0.107411474 0.053635255 -0.5317858 0.025102375 0.24201517
0.17351736 0.13536835 -0.23675188 -0.17010547 -0.1408665 0.11222879 0.16407935 0.07089653
0.10274356 -0.13431689 -0.1496275 0.11590522 0.13212715 -0.020656038 -0.3660956 0.39070812
0.088550724 0.26655993 0.14347467 0.178288 0.22536023 -0.19599628 -0.19232908 0.28509232
-0.041134775 0.04679032 -0.01147164 -0.086067595 -0.07617303 0.0061508985 0.05053071 -0.008365673
-0.03796987 0.081244126 0.008814386 -0.008059999 0.013658308 0.07597676 0.018301733 -0.03385035
0.037811656 0.11099253 0.018685112 -0.055752605 -0.0135402605 0.09863562 -0.027311949 0.009314281
0.0054104547 -0.054690525 0.028359868 0.060487986 -0.10499766 -0.030433739 -0.10447473 -0.018652499
0.1148856 -0.06644923 0.03999424 0.07103598 -0.13947187 0.04403485 0.030835016 -0.096384935
-0.13496387 0.10566881 -0.13148911 0.024183415 -0.016598815 0.05661653 0.11372456 0.029392052
0.030287549 0.022868473 0.003997103 0.07253915 -0.033594564 -0.027572451 0.07590076 -0.029570792
-0.05735675 0.06475137 0.05001721 -0.03251263 -0.044988293 0.07232776 -0.02959937 -0.009606304

fc1.weight f4 [1, 65]
00000000: 10e1 8c3c d2bf 57bd cb0e 243d 2930 423b
00000010: 6406 c13d e89d 30bd 28d5 7e3b 3948 3dbb
00000020: 064c 953c 3d8d 8a3b 44d4 b9bd 0cc9 b33c
00000030: b859 03bd 39cd d6bc 4328 0bbd e68b 98bd
00000040: 12a9 ba3c 0112 dfbc 59b9 523c 9500 36bd
00000050: 2ee9 b9bd fdbe 97bd 1e2c 9c3d f5d4 703d
00000060: a822 a23b d4ba 673d 77ab 7b3c 1c69 433d
00000070: fbb8 9aba e865 74ba b542 3dbd 2295 d33d
00000080: f8a5 223d f1e9 2d3d b34a efbc 8bb4 54bd
00000090: 5e68 8fbc 7c60 43bc ad2e b83b caa3 a13c
000000a0: 6981 bfbc 8b99 1f3d b535 a63d d019 603d
000000b0: 1cf6 80bc 1262 35bd b71f 0cbc c692 553d
000000c0: 8369 7f3c 7927 8cbd 61fc 8c3d 31a7 93bc
000000d0: b2ec db3b 8400 e13c 7c9c 9ebb fbde 89bd
000000e0: 6076 8d3c ae92 3ebc e764 9abd 1948 ee3c
000000f0: 138a 8dbd bd1e ac3c 5e73 e9bb 21f3 65bc
00000100: e322 433f
0.017197162 -0.05267317 0.04005317 0.0029630756 0.09425047 -0.04311934 0.0038884375 -0.002888216
0.018224727 0.0042282627 -0.090736896 0.021946453 -0.032067984 -0.026220905 -0.033973943 -0.074485585
0.022785697 -0.027230265 0.012861573 -0.04443415 -0.090776786 -0.07409475 0.07625602 0.05879684
0.004947979 0.056574658 0.015360705 0.047707662 -0.0011804396 -0.00093230465 -0.046206195 0.10331179
0.03970906 0.042459432 -0.029210424 -0.05192999 -0.01750582 -0.011924859 0.0056207986 0.019731421
-0.023377137 0.03896479 0.081157126 0.054712117 -0.015742354 -0.04428298 -0.008552483 0.052141927
0.015589121 -0.06843466 0.06884075 -0.018024059 0.006711566 0.027466066 -0.0048404317 -0.06731983
0.01726836 -0.011631651 -0.07538777 0.029087113 -0.06911101 0.02101075 -0.0071243485 -0.014035017
0.7622511
