notebook2_intermediate_data/models/stockPrice/model_3.pth (torch, 530728 bytes, 36 tensors)

input_attention.weight f4 [1, 74]
0	0x3c2158a1	0.009847791
1	0xbdabd119	-0.083894916
2	0xbd860c0f	-0.06545269
3	0xbdc2c3c5	-0.09509996
4	0xbd29cba3	-0.04145397
5	0x3cb00eee	0.021491494
6	0x3b86c61c	0.004112972
7	0xbd2af799	-0.041740034
8	0xbcea0d25	-0.02857072
9	0xbd2072f3	-0.039172124
10	0x3d89f513	0.06736197
11	0xbd21ff92	-0.03955037
12	0xbd3ff57b	-0.046864968
13	0xbdd91d81	-0.106013305
14	0xbd80f246	-0.0629621
15	0xbd5ae5a2	-0.05344165
16	0xbdd14106	-0.1021748
17	0xbd28d0ea	-0.04121486
18	0x3decd3b9	0.115638204
19	0x3de7395c	0.11290237
20	0xbdd859c6	-0.10563998
21	0xbb8ff6b9	-0.0043934253
22	0x3dee0046	0.11621146
23	0x3cf30b08	0.029668346
24	0x3cf10282	0.029420141
25	0xbd4886c9	-0.048956666
26	0x3db7808f	0.089600675
27	0x3db87386	0.09006409
28	0xbd90813c	-0.070558995
29	0x3c3d43aa	0.011551777
30	0x3c53e76a	0.012933591
31	0x3dba1460	0.090859175
32	0xbd836e09	-0.06417472
33	0xbdb88350	-0.09009421
34	0x3cb44e45	0.022009978
35	0x3c84c3aa	0.016206581
36	0xbd0f699b	-0.035012823
37	0x3d498628	0.049200207
38	0x3da7fe9d	0.082028605
39	0xbd94781f	-0.07249474
40	0xbb9ece17	-0.004846345
41	0x3d2e5a76	0.04256674
42	0xbdabb636	-0.08384363
43	0xbce65ce2	-0.028120462
44	0xbc7792e9	-0.01511071
45	0xbdad8971	-0.084734805
46	0x3db2633a	0.08710332
47	0x3d107b6e	0.03527396
48	0xbd5223c9	-0.05130366
49	0x3ded4115	0.11584679
50	0x3d320ce7	0.043469336
51	0x3de65926	0.112474725
52	0xbda55d5e	-0.08074449
53	0xbd0d71ca	-0.034532346
54	0x3d7369e0	0.059427142
55	0xbd9c1dcc	-0.07622871
56	0xbc43e262	-0.011955829
57	0xbd766ab8	-0.06016037
58	0xbd0a2144	-0.03372313
59	0xbd9e86e8	-0.07740575
60	0x3de21d13	0.11040702
61	0xbcfbe994	-0.030751027
62	0xbd42e9bb	-0.047586184
63	0x3a8a2592	0.0010539761
64	0x3d9ca7a8	0.076491654
65	0xbdc524fa	-0.09626193
66	0x3e40f4ef	0.18843435
67	0x3e83457d	0.25638953
68	0x3eb2779f	0.3485689
69	0x3da12585	0.078684844
70	0x3e5036ed	0.20333453
71	0x3eaa1aae	0.3322348
72	0x3ec70416	0.38870305
73	0x3ead328f	0.33827636

rnn.weight_ih_l0 f4 [192, 86]
0	0xbe2f8f62	-0.1714454
1	0x3e13801a	0.14404336
2	0xbd1baf9b	-0.038009267
3	0xbc83be11	-0.016081842
4	0x3b1fb433	0.0024368882
5	0xbd837b92	-0.064200535
6	0x3ddd4c32	0.10805549
7	0xbd0f5185	-0.034989852
8	0x3d23d9d7	0.04000267
9	0xbe0299b2	-0.12753943
10	0x3c9494a3	0.018137282
11	0xbd54ae12	-0.05192382
12	0x3d66f872	0.05638928
13	0x3cd0ed5b	0.025503805
14	0x3d975910	0.07390034
15	0x3da68ce1	0.08132339
16	0x3dc74a03	0.097309135
17	0x3c300c42	0.01074511
18	0xbd33e0e6	-0.04391565
19	0x3d095b00	0.03353405
20	0x3d23c96b	0.03998701
21	0xbdedf3af	-0.116187446
22	0x3c8fbbb1	0.017545553
23	0xbe137850	-0.14401364
24	0x3d097f0d	0.03356843
25	0x3d9a796b	0.0754269
26	0xbdbd3e5a	-0.09240408
27	0x3b0bdccb	0.002134132
28	0x3d89995f	0.06718706
29	0x3e234bec	0.1594693
30	0xbe2d200b	-0.16906755
31	0x3da0ea2e	0.07857166
32	0xbd3160d6	-0.04330524
33	0x3e461e82	0.19347575
34	0xbdf9df1f	-0.1220076
35	0x3d3e3c44	0.046444193
36	0xbd5d142c	-0.053974316
37	0xbd99e30b	-0.07514008
38	0xbdece8ae	-0.11567818
39	0xbdd2c20d	-0.102909185
40	0xbdfdf7d6	-0.124007866
41	0x3c95ac6f	0.0182707
42	0xbc4e4320	-0.012589246
43	0x3d6ae7cd	0.05734997
44	0xbda7e526	-0.081980035
45	0xbdd63201	-0.10458756
46	0x3dc455eb	0.095867
47	0x3ca9d1d1	0.020729931
48	0xbd915e39	-0.0709805
49	0x3df41c86	0.11919503
50	0x3db71b0c	0.08940706
51	0xbdb5e778	-0.0888204
52	0x3e0d052e	0.13771507
53	0xbd874133	-0.06604233
54	0x3d608530	0.054814517
55	0xbda75398	-0.08170241
56	0xbbd2389c	-0.00641544
57	0x3db0aa47	0.08626228
58	0xbd99ee40	-0.07516146
59	0x3d09cdef	0.03364366
60	0x3de4df99	0.1117546
61	0xbd99fc82	-0.07518865
62	0x3d75f797	0.060050573
63	0xbe0d32b4	-0.13788873
64	0xbdb03b49	-0.08605058
65	0xbe076504	-0.13222128
66	0xbde8e996	-0.11372678
67	0xbdc12752	-0.09431328
68	0xbe27756e	-0.1635339
69	0x3d7b45a8	0.061345726
70	0x3dc1f0da	0.09469767
71	0xbdf8fd81	-0.12157727
72	0x3d0591d7	0.032609787
73	0xbdc32a88	-0.095295966
74	0x3d8055c9	0.06266362
75	0xbc71b584	-0.014752749
76	0x3da43a70	0.080189586
77	0x3a93836b	0.0011254376
78	0xbd1ca63e	-0.03824448
79	0xbbc563cf	-0.006023861
80	0x3d958be1	0.073020704
81	0xbdb3c364	-0.08777502
82	0x3d560807	0.05225375
83	0xbce128a5	-0.027485201
84	0x3dccb911	0.09996236
85	0xbd83c7e4	-0.064346105
86	0x3ce096f6	0.027415734
87	0xbdf9c279	-0.12195296
88	0xbe505064	-0.20343167
89	0xbdec9e41	-0.11553622
90	0xbdb30b19	-0.08742351
91	0xbd6dbec9	-0.058043275
92	0xbd9508d6	-0.07277076
93	0xbe218dd7	-0.15776764
94	0x3c6a80d3	0.014312941
95	0xbdfa7883	-0.12230017
96	0x3ce25096	0.027626317
97	0xbba64b39	-0.005074885
98	0xbc886cc9	-0.016653435
99	0xbd7c97f9	-0.06166837
100	0xbd998e06	-0.07497792
101	0xbe313d24	-0.1730848
102	0x3bac5ec2	0.0052603194
103	0xbe52370b	-0.2052881
104	0xbd900aeb	-0.070333324
105	0xbe11e9e6	-0.14249381
106	0x3de8b347	0.113623194
107	0xbb9d3ca3	-0.004798488
108	0x3d63fe1e	0.055662267
109	0xbcb175a9	-0.02166255
110	0x3ad90552	0.0016557372
111	0x3ccf442a	0.025301058
112	0x3c6979a2	0.014250191
113	0x3bc58d6c	0.0060288217
114	0x3c8f5adf	0.017499385
115	0x3b47e78f	0.003050301
116	0xbdfda28c	-0.12384519
117	0xbdf6fd7e	-0.120600685
118	0xbd4e807e	-0.05041551
119	0x3d9a8354	0.0754458
120	0xbd94cfff	-0.072662346
121	0xbe44aba2	-0.19206098
122	0xbde6cdd3	-0.112697266
123	0xbdb77d43	-0.08959439
124	0xbdb021fe	-0.086002335
125	0xbd5bf71e	-0.053702466
126	0xbcb0c981	-0.02158046
127	0xbddaf21c	-0.1069071
128	0xbde69c31	-0.1126026
129	0xbc6cca09	-0.014452466
130	0xbd464471	-0.048405115
131	0xbd86fcf8	-0.06591219
132	0xbdcc620b	-0.09979638
133	0xbd492087	-0.049103286
134	0xbcbae5ba	-0.02281462
135	0xbe08707a	-0.13324156
136	0xbdb10371	-0.086432345
137	0xbc370181	-0.011169792
138	0x3cec9ad1	0.028882416
139	0xbe1fe82c	-0.1561591
140	0x3cd991c3	0.026558762
141	0xbdcf0b9a	-0.10109635
142	0x3da0435f	0.0782535
143	0x3d704646	0.058660768
144	0x3c615636	0.013753464
145	0xbda3ecc0	-0.08004141
146	0x3ce9ffaf	0.028564302
147	0xbd1473c9	-0.036243234
148	0x3d37f44c	0.044910714
149	0x3d83c466	0.064339444
150	0x3dc24c64	0.094872266
151	0xbcb03942	-0.021511678
152	0x3d970cf2	0.07375516
153	0x3d1b900f	0.03797918
154	0x3cc4f396	0.024041932
155	0x3c4a469b	0.012345935
156	0xbd507f43	-0.050902616
157	0xbdcbe5d8	-0.099559486
158	0xbe1694a3	-0.14705138
159	0xbe271634	-0.16317064
160	0x3db2a3b1	0.08722628
161	0xbd0556fb	-0.032553654
162	0xbdf94169	-0.12170679
163	0xbe1b239a	-0.151503
164	0xbd15d246	-0.036577486
165	0x3bef3483	0.007299961
166	0x3b0a0659	0.0021060912
167	0xbd5d2921	-0.0539943
168	0xbe14b859	-0.14523448
169	0x3d2277cd	0.039665032
170	0x3cdb107a	0.026741255
171	0xbd92cb6f	-0.07167708
172	0x3e000900	0.12503433
173	0xbc224362	-0.009903761
174	0xbdc1a90e	-0.09456073
175	0x3d8762ed	0.066106655
176	0xbd9cf528	-0.07663947
177	0xbd8cc5e4	-0.06873682
178	0x3d85dc8e	0.06536208
179	0x3d6ed86f	0.058311876
180	0xbd2d45db	-0.042302947
181	0x3d9493e9	0.07254774
182	0x3cdac9bf	0.026707528
183	0xbe0cc9b1	-0.13748814
184	0xbd88bcb3	-0.066766165
185	0x3da18d63	0.078882955
186	0xbd9025ee	-0.070384845
187	0x3de0f7e3	0.10984781
188	0x3d862893	0.06550708
189	0xbc394616	-0.011308214
190	0x3d8e1a28	0.06938583
191	0xbbafb525	-0.0053621703
192	0x3d830a98	0.06398505
193	0xbe0c5d05	-0.13707359
194	0xbd7cc0f5	-0.061707456
195	0x3dce44c2	0.10071708
196	0xbdb6e353	-0.089300774
197	0xbd1bc275	-0.038027246
198	0x3d35d8c4	0.044396177
199	0xbd354ccb	-0.04426269
200	0xbcaa3671	-0.020777913
201	0x3d56206d	0.052277017
202	0x3d8b998b	0.06816395
203	0x3de3031a	0.11084576
204	0xbbb8595e	-0.005625888
205	0xbd96a72f	-0.073561065
206	0x3debdfba	0.11517282
207	0xbdf60c78	-0.12014097
208	0x3d67bda3	0.056577336
209	0xbc8ac44c	-0.016939305
210	0xbe03ad8f	-0.12859176
211	0x3c75ef11	0.015010611
212	0xbde02810	-0.10945141
213	0x3d73ac42	0.05949045
214	0x3db17072	0.08664025
215	0x3a15cd9e	0.0005714538
216	0xbc4f815c	-0.012665119
217	0x3d8a9b18	0.06767863
218	0xbcd78769	-0.026309686
219	0x3d4e64d6	0.050389133
220	0x3ccdeadb	0.025136402
221	0x3c97d40b	0.018533727
222	0xbdb00c9c	-0.08596155
223	0x3dea4037	0.11438029
224	0x3cf18d46	0.02948631
225	0xbd174160	-0.03692758
226	0x3c2adfbf	0.010429322
227	0xbd8f55e2	-0.06998803
228	0x3d897bce	0.06713067
229	0x3d9c280b	0.07624825
230	0x3de0f602	0.10984422
231	0xbdc82b59	-0.09773893
232	0xbda9bace	-0.08287583
233	0x3da2ece7	0.07955342
234	0x3b234a66	0.002491617
235	0xbda1ef52	-0.07906975
236	0x3dd9a3c8	0.10626942
237	0xbe2c8cd3	-0.16850595
238	0xbe21f30b	-0.1581537
239	0x3ca71ea6	0.020400357
240	0xbda4cc9b	-0.08046838
241	0x3c51a06d	0.012794596
242	0xbdc09c81	-0.09404851
243	0x3d435f39	0.047698233
244	0xbe065b91	-0.13120867
245	0xbd9ff721	-0.07810808
246	0xbdc91939	-0.09819264
247	0x3ddbc2e3	0.10730531
248	0x3d09f099	0.033676717
249	0xbc745139	-0.014911943
250	0x3d67efab	0.05662505
251	0xbd749a2e	-0.05971735
252	0xbddd145d	-0.107948996
253	0xbc8c2e6f	-0.017111985
254	0xbdf0279e	-0.117263064
255	0x3d9d29b3	0.07673969

rnn.weight_hh_l0 f4 [192, 64]
0	0xbcb6dc67	-0.022321893
1	0xbde080b9	-0.10962052
2	0x3dd4fac3	0.103993915
3	0xbd847bdc	-0.06468937
4	0x3dec0bc0	0.11525679
5	0x3de5e347	0.1122499
6	0x3d0843fe	0.033267967
7	0xbc93ba2c	-0.01803311
8	0x3d9ffaba	0.07811494
9	0xbe1783ad	-0.14796324
10	0xbdb830f3	-0.08993711
11	0xbdb5f0fc	-0.08883855
12	0xbe1e9077	-0.15484796
13	0xbd4c3e69	-0.049864206
14	0x3d5ff99e	0.054681413
15	0x3d968cf8	0.073511064
16	0xbab72dae	-0.0013975406
17	0xbe2825ef	-0.1642072
18	0xbdeaf96b	-0.11473354
19	0x3d7b08c4	0.061287656
20	0xbcc901f8	-0.024537072
21	0x3db4fdac	0.088374466
22	0x3b920d1e	0.00445713
23	0x3bb57fe9	0.0055389297
24	0x3cca82ed	0.024720633
25	0xbd54014d	-0.051759053
26	0xbd8c521d	-0.06851599
27	0xbc6d7be7	-0.014494873
28	0xbd356ddc	-0.044294223
29	0xbd8acd79	-0.06777472
30	0xbd93aa3a	-0.072102025
31	0xbda54a24	-0.08070782
32	0x3d07529b	0.033037763
33	0x3daaf1f4	0.0834693
34	0x3dc4dc15	0.0961229
35	0xbd1e4d38	-0.03864786
36	0xbb88d6d6	-0.004176001
37	0xbc900ea9	-0.017585116
38	0x3db4966d	0.08817754
39	0x3d5a35ac	0.05327384
40	0x3c1d7add	0.009611812
41	0x3e0d1a1e	0.13779494
42	0xbd742ecb	-0.059614938
43	0xbd8707f7	-0.06593316
44	0x3d1ea6e5	0.03873338
45	0x3ba011ea	0.004884948
46	0x3dc34a9d	0.09535716
47	0xbd8852c6	-0.06656413
48	0x3cba951c	0.022776179
49	0x3d5aace6	0.053387545
50	0x3d7e57cf	0.06209546
51	0xbd8a4cc6	-0.067529246
52	0xbd814e23	-0.063137315
53	0x3dd64ae3	0.10463502
54	0xbd3f8144	-0.046754137
55	0xbd21b5e0	-0.03948009
56	0xbb838d08	-0.004014615
57	0x3d9e8a2a	0.077411965
58	0xbdd19002	-0.102325454
59	0xbd696f3b	-0.056990843
60	0x3c1eea82	0.009699466
61	0x3e00b7d2	0.12570122
62	0x3dc610af	0.09671151
63	0xbdc8cdd4	-0.098048836
64	0xbab138d6	-0.0013520967
65	0x3e4d853b	0.20070355
66	0xbde4702b	-0.11154207
67	0x3da4bddf	0.080440275
68	0xbd74fa49	-0.059809003
69	0x3d53a9b8	0.05167553
70	0x3d3b28d7	0.045693245
71	0x3df869a9	0.12129528
72	0x3dfaae03	0.12240221
73	0x3d207d4b	0.03918199
74	0xbd07802f	-0.03308123
75	0xbd6a7de9	-0.057248984
76	0xbd434f94	-0.047683313
77	0x3e17c8e0	0.14822721
78	0x3dce0324	0.10059193
79	0x3e36adde	0.17839763
80	0xbd6d186c	-0.05788462
81	0xbda87603	-0.08225634
82	0xbdb10edc	-0.08645412
83	0x3e76d9c7	0.24106513
84	0x3e1283b3	0.14308052
85	0x3df1c725	0.11805562
86	0x3c847aa6	0.016171765
87	0xbd6675fc	-0.056264862
88	0x3dbd9593	0.09257045
89	0xbd365e9e	-0.044523828
90	0x3d9ff97c	0.07811257
91	0xbc19eb01	-0.009394408
92	0x3d8b4f4e	0.068022355
93	0xbe108721	-0.14114048
94	0x3db4e5b6	0.088328764
95	0xbe11beec	-0.14232987
96	0xbe189c38	-0.14903343
97	0x3d7a4c01	0.06110764
98	0xbd3cae79	-0.046064828
99	0xbb726126	-0.0036984175
100	0x3d1fde83	0.039030563
101	0xbd21e2fa	-0.039523102
102	0x3d93825b	0.07202598
103	0xbdfee993	-0.124468945
104	0xbe5e0d17	-0.21684681
105	0xbc8bbded	-0.017058337
106	0xbbf74bb6	-0.0075468672
107	0x3d495d59	0.04916129
108	0x3d7d3de9	0.06182662
109	0x3db3d44f	0.08780729
110	0x3e4fadbc	0.20281118
111	0xbd7cfb7f	-0.061763283
112	0xbc61a020	-0.013771087
113	0xbd2790ed	-0.040909696
114	0x3d03d482	0.032185085
115	0xbda0f09f	-0.07858395
116	0xbd3776bb	-0.044790965
117	0x3caff964	0.021481223
118	0xbd36d7cb	-0.04463939
119	0xbc0e9884	-0.008703355
120	0x3dc3f693	0.09568515
121	0xbdff9e49	-0.124813624
122	0x3de4fee5	0.1118143
123	0x3e06fe2f	0.13182901
124	0x3cf674a4	0.030084915
125	0xbd457cf9	-0.048214886
126	0x3def938f	0.116980664
127	0x3df0c354	0.11756006
128	0xbe205cd0	-0.15660405
129	0xbc55cc8e	-0.013049258
130	0x3e468631	0.19387127
131	0xbc2065d4	-0.009789903
132	0x3d81ee5c	0.063442916
133	0x3e0b9916	0.13632616
134	0xbd2b488e	-0.04181724
135	0xbda0ea8b	-0.078572355
136	0x3d94fba0	0.07274556
137	0xbc1b1266	-0.009464836
138	0xbd02dbf4	-0.031948045
139	0x3dbc447b	0.09192749
140	0xbe3480b8	-0.17627227
141	0xbd8508fa	-0.06495853
142	0xbd9d4750	-0.076796174
143	0xbce464ef	-0.02788016
144	0x3cafe4b6	0.021471363
145	0xbda230e9	-0.07919485
146	0xbccc61e6	-0.024949025
147	0xbd9f9ba2	-0.077933565
148	0x3dde74fb	0.10862156
149	0x3e059442	0.13044837
150	0x3e81c023	0.253419
151	0xbca8eecc	-0.02062168
152	0x3de58d6e	0.11208616
153	0xbd91856b	-0.071055256
154	0x3d573f57	0.05255064
155	0xbc5ce497	-0.013482234
156	0xbddc2550	-0.10749304
157	0xbdc75dca	-0.09734686
158	0x3cd9ca09	0.026585596
159	0xbd7d82da	-0.061892368
160	0x3dc03220	0.093845606
161	0x3d045bab	0.032313984
162	0xbcacddcd	-0.021101857
163	0xbdd85273	-0.10562601
164	0xbdb8d5ab	-0.09025129
165	0x3de175dd	0.11008809
166	0xbcd6708e	-0.026176717
167	0x3d4b5602	0.04964257
168	0xbdab6ab1	-0.08369959
169	0x3d1c618f	0.038178977
170	0xbdd8a2dd	-0.10577939
171	0x3ca93c86	0.020658743
172	0xbe1c05f3	-0.15236644
173	0x3c918118	0.017761752
174	0xbdb90825	-0.090347566
175	0xbdf9f5b4	-0.12205067
176	0xbcb4aa0a	-0.022053737
177	0xbde89007	-0.11355596
178	0x3de8f3c1	0.11374617
179	0x3e68b7ef	0.22726415
180	0xbd8851fc	-0.06656262
181	0xbd9e5833	-0.077316664
182	0xbdcb8bd2	-0.09938778
183	0xbdd9fdd6	-0.106441185
184	0x3da19c8f	0.07891189
185	0xbdc8990a	-0.09794815
186	0xbd452b2f	-0.048136886
187	0xbdc73cec	-0.09728417
188	0xbbc293f4	-0.0059380475
189	0xbd70b2bc	-0.058764204
190	0x3db3064c	0.087414354
191	0xbc057ac6	-0.008146947
192	0xbdb894ea	-0.09012778
193	0xbdc6ce65	-0.097073354
194	0x3de5c84f	0.112198465
195	0x3e66dd97	0.22545467
196	0x3dd2fb62	0.10301854
197	0xbc978fc2	-0.018501166
198	0xbe0926b2	-0.13393667
199	0xbd79ae9a	-0.06095753
200	0xbe36c54a	-0.17848697
201	0x3d91e7dd	0.071243025
202	0x3c63f590	0.013913527
203	0x3cec983a	0.028881181
204	0xbd605e4e	-0.054777436
205	0x3c162633	0.009164381
206	0x3ba032a1	0.004888848
207	0x3d4e6e65	0.05039825
208	0xbd83d56c	-0.06437191
209	0x3d9995c7	0.07499271
210	0xbd7c7670	-0.06163639
211	0x3df9e31b	0.1220152
212	0x3cc2a8d1	0.023762139
213	0x3d562a06	0.05228617
214	0x3d413def	0.047178205
215	0xbdcaffe4	-0.099120885
216	0x3da2bc23	0.079460405
217	0x3bc5d05a	0.0060368003
218	0xbc851d76	-0.0162494
219	0xbe084dba	-0.133109
220	0xbdbe455d	-0.09290574
221	0x3d8aca1e	0.06776832
222	0x3e0dff4b	0.13866918
223	0xbd3bda1b	-0.0458623
224	0x3db105d5	0.086436905
225	0xbe18caa1	-0.14921047
226	0x3e3fb557	0.1872152
227	0x3e0df995	0.13864739
228	0xbb51db48	-0.003202157
229	0xbcc4d10b	-0.02402546
230	0x3cbf5222	0.023354594
231	0xbdc0157b	-0.09379097
232	0x3d04f56f	0.032460626
233	0x3d941a38	0.07231563
234	0x3d958242	0.07300235
235	0xbcd4cc99	-0.025976466
236	0xba955d78	-0.0011395654
237	0x3d9877a8	0.074446976
238	0xbd0a07d0	-0.033698857
239	0x3dbd9613	0.0925714
240	0xbbe3343f	-0.0069337185
241	0x3d57d605	0.05269434
242	0xbe2778d5	-0.16354688
243	0x3db8380b	0.08995064
244	0x3e07fe44	0.13280588
245	0x3da9adfb	0.08285137
246	0x3c56796c	0.013090473
247	0xbc184e01	-0.009295941
248	0x3d056732	0.032569118
249	0xbdcec27d	-0.100956894
250	0xbda11dc7	-0.07867008
251	0x3d027eb3	0.03185911
252	0x3e32985a	0.1744093
253	0x3d347c66	0.044063948
254	0x3d3a1b8c	0.045436427
255	0xbd29d30d	-0.04146104

rnn.bias_ih_l0 f4 [192]
0	0xbd7581c6	-0.059938215
1	0x3d0b437b	0.0339999
2	0xbd64fe9d	-0.05590688
3	0xbdfc4936	-0.123186514
4	0xbdb3938b	-0.08768376
5	0x3c670370	0.014099941
6	0x3d547d04	0.051877037
7	0xbcd56912	-0.026051078
8	0xbdb94aa3	-0.09047439
9	0xbde35629	-0.11100418
10	0xbd376ed1	-0.044783417
11	0xbd7ce493	-0.061741423
12	0xbdb6a058	-0.08917302
13	0xbdcf660e	-0.10126887
14	0x3d1bbe62	0.03802336
15	0xbe16a053	-0.14709596
16	0xbd10bca2	-0.035336144
17	0xbe74a423	-0.23890738
18	0xbd2e0f9e	-0.042495362
19	0xbe3a4022	-0.18188527
20	0xbd8c3dfa	-0.068477586
21	0xbe3870e0	-0.18011808
22	0xbd246120	-0.040131688
23	0xbe315c34	-0.17320329
24	0xbbdc44c7	-0.006722066
25	0xbde41416	-0.111366436
26	0xbdcb6ae5	-0.09932498
27	0xbdf85dcc	-0.12127265
28	0xbca1fd70	-0.019774169
29	0xbe28149d	-0.16414113
30	0xbd7327e2	-0.059364207
31	0xbe212338	-0.15736091
32	0x3e080192	0.13281849
33	0xbdbed4f2	-0.0931796
34	0x3d086a66	0.033304594
35	0xbd02da7e	-0.03194665
36	0x3d4a0051	0.049316708
37	0xbee4d272	-0.44691807
38	0xbde86b43	-0.113485835
39	0xbd76c63c	-0.060247645
40	0xbdd4a875	-0.10383693
41	0xbe801d7a	-0.2502249
42	0xbd4c1bd6	-0.049831234
43	0xbd6576bf	-0.05602145
44	0xbdf786ea	-0.1208628
45	0x3d8b94d9	0.068155
46	0x3cb9788f	0.022640495
47	0x3d063d46	0.03277328
48	0x3d859abd	0.065236546
49	0xbce39140	-0.027779222
50	0x3bfad066	0.0076542376
51	0xbdbe6371	-0.09296311
52	0x3de45941	0.11149836
53	0xbc9e0b6c	-0.019292556
54	0xbc1f4b47	-0.009722537
55	0xb9f63867	-0.000469628
56	0xbe344f00	-0.17608261
57	0xbd888db7	-0.06667655
58	0xbe235b36	-0.15952763
59	0xba5bfda1	-0.00083919807
60	0xbcb1c067	-0.02169819
61	0x3d956148	0.072939456
62	0xbde6ef4c	-0.11276111
63	0x3dc0fecd	0.094235994
64	0x3e3101ec	0.1728589
65	0x3eb0c85b	0.3452786
66	0x3e9dd003	0.30822763
67	0x3e8c4972	0.27399784
68	0x3e171ab3	0.14756279
69	0x3e42dc10	0.1902926
70	0x3e329bf7	0.17442308
71	0xbcdf49e5	-0.027256915
72	0x3e51a5ce	0.20473406
73	0x3ed7b315	0.42128816
74	0x3d8d3b95	0.0689613
75	0x3b028692	0.0019916636
76	0x3ecf7db2	0.40525585
77	0x3cb8541e	0.022501048
78	0x3e3c5538	0.18391883
79	0x3d0a16fa	0.03371332
80	0x3e0295d8	0.12752473
81	0x3ce29ce7	0.027662707
82	0x3e779070	0.24176192
83	0x3e81e98e	0.253735
84	0x3df7b2eb	0.12094673
85	0x3d837be8	0.064201176
86	0x3ee04a5c	0.43806732
87	0x3dd48b74	0.10378161
88	0x3dc113cb	0.09427603
89	0x3e09f1e6	0.13471183
90	0x3eabc60a	0.3354953
91	0xbd22462b	-0.0396177
92	0xbd18e083	-0.037323486
93	0x3d0ee7c9	0.034889016
94	0x3e9e2aa7	0.30891916
95	0x3d4557ac	0.048179314
96	0x3e5599a6	0.20859393
97	0x3c963e54	0.018340267
98	0x3e9b6042	0.30346876
99	0x3dacad2d	0.08431468
100	0x3e962cd8	0.29331088
101	0x3df2ed1b	0.118616305
102	0x3df3b181	0.118990906
103	0x3eaf7ead	0.34276333
104	0x3db5e222	0.08881022
105	0x3e033426	0.12812862
106	0x3dc4ef63	0.09615972
107	0x3e488302	0.19581226
108	0x3e8ac19b	0.27100834
109	0x3ebe70dd	0.37195483
110	0x3ec22115	0.37915865
111	0x3d6a0097	0.05712947
112	0x3c0a4b1d	0.00844076
113	0x3c021562	0.007939668
114	0x3e349f3b	0.17638867
115	0x3e611b3a	0.21983042
116	0x3e27d47e	0.16389653
117	0x3ad6569d	0.0016352717
118	0x3d7cd2dd	0.061724532
119	0x3e2a5c02	0.1663666
120	0x3e90b5c1	0.28263667
121	0x3e8229c9	0.25422505
122	0x3ac5489d	0.0015051548
123	0x3dab329b	0.083592616
124	0x3e8cfe7f	0.27537915
125	0x3de497e8	0.11161786
126	0x3d5bdbc4	0.05367638
127	0x3e1a95b7	0.15096174
128	0x3d53313b	0.05156062
129	0x3cd8196b	0.026379308
130	0x3d849adb	0.06474849
131	0x3d399167	0.045304682
132	0xbc9dd51e	-0.019266661
133	0xbd90f2c1	-0.07077552
134	0xbd4f0154	-0.050538376
135	0xbd02ec76	-0.031963788
136	0xbd803a6d	-0.06261144
137	0x3ce9ae9a	0.02852564
138	0xbcdd7fe8	-0.02703853
139	0xbd0a173c	-0.033713564
140	0x3d0bbd23	0.03411592
141	0xbd7cae8c	-0.0616899
142	0xbd326122	-0.043549664
143	0x3ca2e752	0.019885693
144	0x3a006727	0.00048981834
145	0x3abc8f5d	0.0014385987
146	0xbd22ccfd	-0.039746273
147	0x3c5dccf3	0.013537633
148	0x3d59cf35	0.053176124
149	0xbc804c9d	-0.015661532
150	0xbc1c00c5	-0.009521668
151	0xbb74e429	-0.003736744
152	0xbd30d3ee	-0.043170862
153	0xbd5a0cff	-0.05323505
154	0x3d4fc031	0.050720397
155	0xbccf4b4b	-0.025304457
156	0xbd340994	-0.043954447
157	0x3cbd7b36	0.02313004
158	0x3d0b697b	0.03403614
159	0x3c63c7c9	0.013902613
160	0x3d236443	0.03989054
161	0xbd8614da	-0.06546946
162	0x3d2cba3c	0.042169794
163	0xbcca98d4	-0.024731077
164	0xbd3a0c42	-0.045421846
165	0xbbfe04ed	-0.007752052
166	0xbc9f8944	-0.019474633
167	0xbcbedd93	-0.023299014
168	0x3c2c69e3	0.010523292
169	0x3d1734ee	0.036915712
170	0xbc925787	-0.017864002
171	0xbcdc7753	-0.026912367
172	0xbcf68ee6	-0.030097436
173	0xbcd5ed64	-0.026114173
174	0xbcab8c8b	-0.02094104
175	0x3c66a2b3	0.014076876
176	0xbd4c9e27	-0.049955513
177	0x3ce3436b	0.027742108
178	0x3cb1041a	0.021608401
179	0x3d496e19	0.049177263
180	0x3d37bb67	0.044856455
181	0xbc891426	-0.01673324
182	0x3d1ca5d6	0.03824409
183	0xbbefa38e	-0.0073131984
184	0xbbf2959d	-0.007403089
185	0xbc7a6540	-0.015282929
186	0xbd8687cc	-0.0656887
187	0x3bf0f45d	0.007353349
188	0xbccc8722	-0.02496678
189	0xbc02e02e	-0.007988019
190	0xbcb40f57	-0.02197997
191	0xbd35473d	-0.04425739

rnn.bias_hh_l0 f4 [192]
0	0xbc8edaa3	-0.017438238
1	0xbd10e150	-0.035371125
2	0x3dcb8533	0.09937515
3	0xbe0802a8	-0.13282263
4	0x3c871384	0.016488798
5	0x3dd4be1f	0.10387825
6	0xbc9c314d	-0.019066477
7	0xbe030c0c	-0.12797564
8	0x3c6df030	0.014522597
9	0xbc292dd2	-0.010325866
10	0xbd7e2078	-0.062042683
11	0x3daef2bc	0.08542392
12	0xbdfbaf26	-0.12289266
13	0x3da60e1a	0.081081584
14	0x3da7e127	0.08197241
15	0x3d9d8b07	0.07692533
16	0xbe8c3cba	-0.2739008
17	0xbd444a7e	-0.047922604
18	0xbdb979e7	-0.09056454
19	0xbe008f09	-0.12554564
20	0x3ab80789	0.0014040332
21	0xbce9b087	-0.028526558
22	0xbe2351af	-0.15949129
23	0xbe3f7418	-0.1869663
24	0x3dd5a289	0.10431392
25	0xbe17fa82	-0.14841655
26	0x3dce7ad5	0.10082022
27	0x3d958178	0.07300085
28	0x3dbad6d9	0.0912301
29	0x3c744e2e	0.014911218
30	0x3d968150	0.07348883
31	0xbe86da1c	-0.2633828
32	0x3dd694cc	0.104775995
33	0x3d97bb96	0.07408826
34	0xbe0c3211	-0.13690974
35	0xbd390900	-0.0451746
36	0x3dab2193	0.08356013
37	0xbea27ee6	-0.3173744
38	0xbc95e7ad	-0.018298948
39	0xbc50fe28	-0.012755908
40	0xbdcd1d3b	-0.10015341
41	0xbe20c939	-0.1570176
42	0xbe52e182	-0.20593837
43	0xbe0844ff	-0.1330757
44	0x3bb6b519	0.0055757877
45	0xbd827259	-0.06369466
46	0xbe1c1ba3	-0.15244918
47	0xbd936884	-0.07197669
48	0xbdca1d50	-0.09868872
49	0xbcdbb615	-0.026820222
50	0xbddeb916	-0.10875146
51	0x3b3f92aa	0.0029231706
52	0x3d9f1b36	0.07768862
53	0x3d202e4c	0.039106652
54	0xb93ca7e7	-0.00017991626
55	0x3ccbb73c	0.024867646
56	0xbcd48ced	-0.025946105
57	0xbcacd2ff	-0.021096705
58	0x3dae6944	0.085161716
59	0x3cf96a04	0.03044606
60	0xbda4c3fc	-0.080451936
61	0xbdd6d91a	-0.104906276
62	0xbd51ad43	-0.051190626
63	0x3de69162	0.11258198
64	0x3e305457	0.17219673
65	0x3e5b5390	0.21418595
66	0x3e641ca7	0.22276555
67	0x3e8a7f2b	0.27050146
68	0x3b336623	0.002737411
69	0x3e3d00e7	0.18457375
70	0x3e82b92d	0.25531903
71	0x3e07be0a	0.13256088
72	0x3e3823eb	0.17982452
73	0x3e9c04e8	0.30472493
74	0x3c84c1b0	0.016205639
75	0xbbffcfc1	-0.0078067486
76	0x3e99b9c3	0.30024537
77	0x3e5455ed	0.20735903
78	0x3dbd4693	0.092419766
79	0x3e1f7a11	0.15573908
80	0x3dc143b2	0.0943674
81	0x3d9e4e37	0.07729762
82	0x3e141da7	0.14464436
83	0x3e75d1a1	0.24005748
84	0x3dbaa09c	0.09112665
85	0x3e21d6fe	0.1580467
86	0x3f147246	0.5798687
87	0x3cf796dc	0.030223303
88	0x3e198b39	0.14994515
89	0x3e5188e6	0.20462379
90	0x3eac2fc2	0.33630186
91	0x3e2cf071	0.16888596
92	0x3dc2967f	0.09501361
93	0x3dd6e867	0.10493546
94	0x3e958ece	0.29210514
95	0xbd8400b6	-0.06445448
96	0x3da526c2	0.08064033
97	0x3e1f46e9	0.15554394
98	0x3dd772c7	0.10519939
99	0x3e7b1b1f	0.24522065
100	0x3e7dd028	0.24786437
101	0x3d850666	0.06495361
102	0x3e4b97f2	0.19882181
103	0x3ea0afe2	0.31384188
104	0x3da8d442	0.0824361
105	0x3c3d3f7e	0.011550782
106	0xbb8e2dba	-0.004338947
107	0x3e3b2080	0.18274117
108	0x3eadea7e	0.33967966
109	0x3ecb9461	0.39761642
110	0x3ea51d38	0.32248855
111	0x3dd7f0f9	0.10544009
112	0x3c80d535	0.015726665
113	0x3e6a0112	0.22851971
114	0x3dfc7c8e	0.123284444
115	0x3e127b7d	0.1430492
116	0x3d17367c	0.036917195
117	0x3d5a57f5	0.05330654
118	0x3dd75652	0.10514511
119	0x3d5586a9	0.052130375
120	0x3dea13bb	0.114295445
121	0x3e5118bb	0.2041959
122	0x3d8c52cb	0.06851729
123	0x3e0045de	0.12526652
124	0x3e2635a2	0.16231397
125	0x3a3fada6	0.00073119474
126	0x3e2a35a8	0.1662203
127	0x3e614274	0.21998006
128	0xbddf751b	-0.10911008
129	0xbd9f5284	-0.077794105
130	0xbdd4fe80	-0.104001045
131	0xbdd821b8	-0.10553306
132	0x3caaa45b	0.020830324
133	0x3d92786f	0.07151877
134	0x3def8625	0.11695508
135	0xbc381521	-0.011235506
136	0x3e1d7666	0.15377197
137	0xbd9989ec	-0.0749701
138	0xbd0d4c9f	-0.0344969
139	0xbac4a2da	-0.0015002147
140	0xbd8c96d9	-0.068647094
141	0x3d3f34da	0.046681263
142	0x3d93f921	0.07225252
143	0xbd88e4c9	-0.06684262
144	0x3ca34c36	0.019933801
145	0xbc1c8be4	-0.009554837
146	0x3db2ce7d	0.08730791
147	0xbced7f12	-0.028991256
148	0xbda99087	-0.082795195
149	0xbc351334	-0.011051942
150	0x3d181636	0.037130557
151	0x3d11e8c1	0.035622362
152	0x3d2331aa	0.039842285
153	0xbd33ea8c	-0.043924853
154	0xbd9f4098	-0.07775992
155	0x3d9b274d	0.075758554
156	0x3d8fd9a0	0.070239305
157	0x3d4b9bc3	0.049709093
158	0xbd5e58ce	-0.05428391
159	0x3caca6a4	0.021075554
160	0xbcff5c09	-0.031171815
161	0x3e044233	0.12915878
162	0xbd82ab88	-0.06380373
163	0x3d798a2d	0.06092279
164	0x3d728789	0.059211288
165	0xbbd125da	-0.006382686
166	0xbcb451a6	-0.02201159
167	0x3d09c382	0.033633716
168	0x3c14c79e	0.009080796
169	0x3cbac769	0.022800164
170	0xbc2ba2bf	-0.010475813
171	0x3d0d3c27	0.034481194
172	0x3d9707e4	0.07374552
173	0x3d2f3682	0.042776592
174	0x3d95457c	0.07288644
175	0x3cbf2434	0.023332693
176	0x3d8346ff	0.06410026
177	0x3a70c7b5	0.0009185032
178	0xbbdcbf23	-0.0067366525
179	0xbdc5ffbc	-0.09667918
180	0xbd91968a	-0.07108791
181	0x3d441c61	0.047878627
182	0xbdc65683	-0.096844696
183	0xbd108e17	-0.035291757
184	0x3bdceb6a	0.0067419307
185	0xbcfaae06	-0.030600559
186	0x3d208711	0.03919131
187	0x3b44f80e	0.0030055079
188	0x3dac38ab	0.08409246
189	0x3cb5fc2c	0.022214971
190	0xbd2f7afa	-0.04284189
191	0x3cddebf0	0.027090043

temporal_attention.weight f4 [1, 128]
0	0x3d771e8e	0.060331874
1	0xbd95e6b4	-0.07319394
2	0x3d2da515	0.042393763
3	0xbd3ecf25	-0.046584267
4	0x3d6a4ce9	0.057202253
5	0xbd23f027	-0.04002395
6	0xbbba50a6	-0.0056858836
7	0x3d4be3fd	0.049777973
8	0x3d49ab9a	0.049235918
9	0x3c006e19	0.007838749
10	0xbd567368	-0.052356154
11	0x3da965da	0.0827138
12	0xbd6952f3	-0.056963872
13	0x3beb0d34	0.007173205
14	0xbd8527bb	-0.065017186
15	0xb96c4643	-0.00022532888
16	0xbd2833b8	-0.041064948
17	0x3ca732e7	0.020410014
18	0xbd735ed6	-0.059416614
19	0xbdb11631	-0.08646811
20	0x3d8984b0	0.06714761
21	0x3d20006a	0.039062895
22	0x3ccb72a9	0.024834948
23	0xbdaf3f38	-0.0855698
24	0xbd07fd9b	-0.03320084
25	0x3da44a2d	0.080219604
26	0x3ce3fb66	0.027829837
27	0xbd8261df	-0.06366324
28	0x3d7e9a70	0.062159
29	0xbcc7a8f8	-0.024372563
30	0x3d93ebd9	0.07222719
31	0xbcd1cf8e	-0.025611665
32	0x3d961d76	0.07329838
33	0xbc94c2ab	-0.018159231
34	0xbcd871fa	-0.026421536
35	0xba1a489c	-0.00058854534
36	0xbcf715f0	-0.030161828
37	0xbd86d7a2	-0.065840974
38	0x3bf268b4	0.0073977355
39	0x3c7c5501	0.015401126
40	0x3d4587c1	0.04822517
41	0xbd031cbb	-0.03200982
42	0xbd81b5db	-0.06333514
43	0xbcd11144	-0.025520928
44	0xbd818604	-0.063243896
45	0xbdb30993	-0.087420605
46	0xbd012e63	-0.03153838
47	0xbd7dd9f0	-0.06197542
48	0x3d6ad7e3	0.057334792
49	0xbafc1404	-0.0019232039
50	0x3c095290	0.008381501
51	0xbda19050	-0.078888535
52	0x3ce968f8	0.028492436
53	0x3d79a5ba	0.060949065
54	0x3ca47a29	0.020077782
55	0x3d5802f0	0.052737176
56	0x3d783954	0.060601547
57	0xbd87cfcc	-0.06631431
58	0x3c3d6da0	0.011561781
59	0xbd67f1e6	-0.056627177
60	0x3d7cdc15	0.061733324
61	0x3d7d4113	0.061829638
62	0x3d1652cf	0.036700066
63	0x3d177485	0.036976356
64	0xbe25df3f	-0.16198443
65	0xbf15d036	-0.5852083
66	0xbe314d29	-0.1731459
67	0x3ecebd41	0.40378764
68	0x3e969034	0.29406893
69	0x3f0d9915	0.5531171
70	0xbf06033e	-0.523487
71	0x3f03b27d	0.51444227
72	0xbf108ecd	-0.56467897
73	0xbe8b4011	-0.27197316
74	0x3effa02e	0.49926895
75	0xbf0147bf	-0.505001
76	0xbe6be91d	-0.23038144
77	0x3f2ab9d4	0.666898
78	0xbed19101	-0.40930942
79	0x3e04751d	0.129353
80	0x3f06f980	0.52724457
81	0xbf027dcd	-0.50973207
82	0xbeadac44	-0.3392049
83	0x3e4813ac	0.19538754
84	0x3f032715	0.5123151
85	0x3e9f6444	0.31131184
86	0x3efdd580	0.4957695
87	0xbe119fdd	-0.14221139
88	0x3e5546bd	0.20827766
89	0x3f041327	0.51591724
90	0x3ebe074d	0.37114945
91	0xbe95f385	-0.29287353
92	0x3c24c020	0.010055572
93	0xbeed9a31	-0.464067
94	0x3f0ba738	0.5455203
95	0x3e9cbd21	0.30613044
96	0x3ebb55b8	0.36588836
97	0x3edc0879	0.42975214
98	0xbe204c3c	-0.15654081
99	0x3e8ee7be	0.2791118
100	0xbe001025	-0.12506159
101	0x3ec83560	0.39103222
102	0x3ef3c31f	0.47609803
103	0xbe885fbe	-0.26635545
104	0xbe647ff3	-0.22314434
105	0xbf210c61	-0.62909514
106	0x3eedfbbd	0.46481124
107	0xbdac6676	-0.084179804
108	0x3eb594a7	0.35464975
109	0xbdf86b2a	-0.12129815
110	0x3f062dc3	0.52413577
111	0x3dd22830	0.102615714
112	0xbed54937	-0.4165742
113	0x3d76ddef	0.060270246
114	0xbed23bb3	-0.41061172
115	0x3f14711b	0.57985085
116	0xbe9223a5	-0.2854282
117	0xbeb02f08	-0.34410882
118	0x3ee6b6c8	0.45061326
119	0x3ee4e74c	0.44707716
120	0xbee47f2d	-0.44628277
121	0xbef25e7d	-0.47337714
122	0x3f067b2e	0.5253171
123	0xbd377a09	-0.044794116
124	0xbda01c43	-0.078178905
125	0xbe741c21	-0.23838855
126	0x3ee9e3b6	0.45681542
127	0xbec73939	-0.38910845

rnn.weight_ih_l0 f4 [192, 1]
0	0xbe6fa334	-0.23402101
1	0xbf00fb3e	-0.50383365
2	0xbda12a7f	-0.078694336
3	0x3e019719	0.12655295
4	0xbe38f95d	-0.18063875
5	0xbd1187f8	-0.03553006
6	0x3ebf63bd	0.37380782
7	0xbee99127	-0.45618555
8	0x3cfcf59f	0.03087884
9	0x3e70020b	0.2343828
10	0xbe4e7898	-0.2016319
11	0xbe617191	-0.22015978
12	0x3c341c78	0.010993116
13	0xbeb8be6e	-0.36082786
14	0xbef5c152	-0.47999054
15	0x3ebf1756	0.3732249
16	0x3c8a47b0	0.016879886
17	0xbeb51090	-0.353642
18	0xbef1500b	-0.4713138
19	0x3e8f9421	0.280427
20	0xbeb0b335	-0.34511724
21	0xbf02e98d	-0.5113762
22	0xbf0921b1	-0.53567034
23	0xbd5e82f7	-0.054324117
24	0x3ea86790	0.32891512
25	0xbf0b92b0	-0.545207
26	0xbe344ead	-0.17608137
27	0xbd346b45	-0.044047613
28	0x3dd0ba5a	0.10191794
29	0x3e200a89	0.15629019
30	0x3da132e1	0.078710325
31	0x3e079cf0	0.1324346
32	0x3e98b06e	0.29822105
33	0xbec3c2d9	-0.38234594
34	0xbea86f40	-0.32897377
35	0xbe83cd19	-0.25742415
36	0x3eb29e9a	0.34886628
37	0x3d66931c	0.05629264
38	0xbd26a4df	-0.040684577
39	0xbf249385	-0.64287597
40	0x3eeddd3b	0.46457848
41	0x3e660e9a	0.22466508
42	0x3dd2590e	0.10270892
43	0xbf0e39fd	-0.55557233
44	0x3ea9f738	0.33196425
45	0xbea77e87	-0.3271372
46	0x3eb4741d	0.35244837
47	0x3e2b8c80	0.16752815
48	0xbe2ed91c	-0.17075008
49	0xbecb6744	-0.39727223
50	0xbe6b5743	-0.22982506
51	0xbf0ad674	-0.5423348
52	0xbd140edf	-0.036146995
53	0x3d37f7f5	0.044914205
54	0xbe5c8d2b	-0.21538226
55	0xbddc0614	-0.10743347
56	0x3df4ae37	0.11947291
57	0x3eaf03bb	0.34182534
58	0x3c772223	0.015083822
59	0xbe9a7a4e	-0.30171436
60	0xbef8d063	-0.48596486
61	0xbec799a8	-0.38984418
62	0xbdac28de	-0.08406232
63	0xbea22ff2	-0.31677204
64	0xbf13e833	-0.5777618
65	0xbeac9ceb	-0.3371347
66	0xbe966ff8	-0.293823
67	0xbf33df41	-0.70262533
68	0xbee8db89	-0.45479992
69	0xbf07bd95	-0.53023654
70	0xbef36a76	-0.4754216
71	0xbe6648b7	-0.22488676
72	0xbe19bf65	-0.15014417
73	0xbee06790	-0.43829012
74	0xbe561918	-0.2090801
75	0xbf366d39	-0.7126041
76	0xbe81d09c	-0.2535447
77	0x3ead57b5	0.33855978
78	0xbec1a1f3	-0.3781887
79	0xbf2c2baf	-0.67254156
80	0xbe7ac86e	-0.2449052
81	0x3ec8f584	0.39249814
82	0xbe3de534	-0.18544465
83	0xbf1bd4b5	-0.6087144
84	0xbe5cfd21	-0.21580936
85	0xbf01584d	-0.5052536
86	0xbee252bf	-0.44203755
87	0xbe8ed8b7	-0.27899715
88	0x3e468a19	0.19388618
89	0xbee0a3a4	-0.43874848
90	0xbe4ec97f	-0.20194052
91	0xbe8b68b8	-0.27228332
92	0x3d12ebf6	0.03586956
93	0xbe28ecf7	-0.16496645
94	0xbf19bb38	-0.600513
95	0x3dac1641	0.08402682
96	0xbdd8610c	-0.10565385
97	0xbe4d389c	-0.20041126
98	0xbf0932b7	-0.5359301
99	0x3ef94600	0.48686218
100	0xbe693c97	-0.2277702
101	0x3d5c9248	0.053850442
102	0xbecd2960	-0.4007063
103	0xbefb9e7d	-0.49144354
104	0xbeefc206	-0.46827716
105	0xbec482b2	-0.38380963
106	0xbc14f8f6	-0.00909256
107	0x3e898c24	0.2686473
108	0xbc4935a3	-0.012280854
109	0xbec62b67	-0.38704988
110	0xbf195c49	-0.5990644
111	0xbe9fe21b	-0.31227192
112	0x3d9aa613	0.075512074
113	0x3e7ec4ca	0.24879757
114	0x3e883ecd	0.26610413
115	0xbee0cc81	-0.43906024
116	0xbeaad07e	-0.33362192
117	0xbd38cbea	-0.045116343
118	0x3e0842fd	0.13306804
119	0xbf0c427b	-0.5478894
120	0xbf074ec5	-0.5285457
121	0xbec68d47	-0.3877966
122	0xbf16739e	-0.5877017
123	0xbeb5e57f	-0.35526654
124	0xbe824b26	-0.2544796
125	0x3eaf50f6	0.34241456
126	0x3ebcf488	0.36905313
127	0xbf1e665d	-0.61874944
128	0x3e503a11	0.2033465
129	0xbd57a642	-0.05264879
130	0xbee0a245	-0.43873802
131	0x3eb94545	0.3618566
132	0x3e3c5197	0.18390499
133	0x3ec78ad4	0.38973105
134	0x3ededdf1	0.43528703
135	0xbeb9737f	-0.3622093
136	0xbe488a3a	-0.19583979
137	0x3eee5da9	0.46555832
138	0xbd118b5e	-0.0355333
139	0x3e9f3e40	0.3110218
140	0xbe469672	-0.19393328
141	0xbe94ad1d	-0.29038325
142	0xbec5d553	-0.38639316
143	0xbf0446c4	-0.5167048
144	0x3c4a1d49	0.012336084
145	0xbe5cee86	-0.21575364
146	0xbe3db008	-0.18524182
147	0xbe706472	-0.23475817
148	0x3e69e3f9	0.22840871
149	0xbed66c73	-0.41879615
150	0x3eee8caa	0.46591693
151	0xbef41923	-0.47675428
152	0xbe9eced6	-0.31017178
153	0x3e9bd018	0.304322
154	0x3e0c2ed5	0.1368974
155	0x3d9b5948	0.075853884
156	0xbe9018bd	-0.28143874
157	0xbd828957	-0.06373852
158	0xbe43b198	-0.19110715
159	0xbe95c344	-0.29250538
160	0x3e8d12d6	0.27553433
161	0x3f13fea7	0.57810444
162	0xbefd1adc	-0.49434555
163	0xbcc12275	-0.023576
164	0xbee5269f	-0.44756028
165	0x3eb455bb	0.35221657
166	0xbe5bb028	-0.21453917
167	0x3ef69020	0.48156834
168	0xbed2bc47	-0.4115927
169	0x3e6c3d7d	0.23070331
170	0xbde62f0c	-0.11239442
171	0xbeb149b5	-0.34626547
172	0x3ee0dd11	0.4391866
173	0x3eb76dd4	0.3582598
174	0x3f079727	0.52965015
175	0x3ef3d582	0.4762383
176	0xbc510a57	-0.012758813
177	0xbef56f19	-0.47936323
178	0xbe13132a	-0.1436278
179	0xbf088f17	-0.5334334
180	0x3d2bfa7d	0.04198693
181	0xbd30b920	-0.0431453
182	0xbe4e4928	-0.20145094
183	0x3ebe1bdf	0.3713064
184	0xbefbfae8	-0.49214864
185	0x3e7eda1b	0.24887888
186	0x3ed922f6	0.42409486
187	0x3ea0295a	0.3128155
188	0x3ef70e86	0.48253268
189	0xbec99e3d	-0.3937854
190	0x3ef683b1	0.48147348
191	0x3ecd68ba	0.40118963

rnn.weight_hh_l0 f4 [192, 64]
0	0xbdba2db3	-0.09090748
1	0x3dee4b7e	0.11635493
2	0x3df0d689	0.11759669
3	0xbd943a37	-0.07237666
4	0x3cec6184	0.028855093
5	0x3dbda98d	0.09260855
6	0xbe0e33f9	-0.13887013
7	0x3cbea99f	0.023274241
8	0x3df64237	0.12024348
9	0xbde9abf1	-0.11409748
10	0xbe0f9b13	-0.14024
11	0xbd645029	-0.05574051
12	0x3bd2fc8a	0.0064387964
13	0xbe896b52	-0.2683969
14	0x3d8292f5	0.06375686
15	0x3d1eca5d	0.038767207
16	0x3dd43a6e	0.10362707
17	0xbe0a7e45	-0.1352473
18	0x3e29a737	0.16567694
19	0xbe2ab0f8	-0.1666907
20	0xbce1c512	-0.02755979
21	0x3dd7ac5b	0.10530921
22	0x3cb5cf3f	0.02219355
23	0x3e7229ef	0.23648809
24	0xbe29273c	-0.16518873
25	0xbe6fa625	-0.23403223
26	0xbd94fb7b	-0.072745286
27	0xbe4b60d1	-0.19861151
28	0x3c0a5630	0.0084434
29	0xbe197d9b	-0.14989321
30	0xbc5add86	-0.013358479
31	0xbeab74d0	-0.33487558
32	0x3f06e331	0.52690417
33	0xbdbc1634	-0.091839224
34	0xbd27b587	-0.040944602
35	0xbe23b64a	-0.15987507
36	0x3db0c0c0	0.08630514
37	0x3eff681b	0.49884114
38	0xbe2a917c	-0.1665706
39	0xbe740ba5	-0.23832567
40	0x3d26b1d0	0.04069692
41	0x3d611171	0.054948274
42	0xbe86ac10	-0.26303148
43	0xbe1b30d1	-0.1515534
44	0x3ded64dc	0.11591503
45	0xbc43d2cc	-0.011952113
46	0xbe5d8158	-0.21631372
47	0xbe438a84	-0.19095808
48	0x3d0f6dbb	0.035016757
49	0x3d56c97e	0.05243825
50	0xbe8a7559	-0.27042654
51	0x3d560161	0.05224741
52	0x3e22087c	0.15823549
53	0xbd82e49f	-0.06391262
54	0xbebc4bbc	-0.3677653
55	0xbbf623b2	-0.0075115794
56	0x3e116b16	0.14201006
57	0x3dc1b7f8	0.094589174
58	0xbe9a54c1	-0.30142787
59	0xbe072de1	-0.13201095
60	0xbdcf42eb	-0.101201855
61	0x3cdd60ef	0.02702376
62	0x3eab7667	0.3348877
63	0xbdcdd400	-0.100502014
64	0xbe613356	-0.2199224
65	0x3e5f8fa7	0.21832143
66	0x3eb19190	0.34681368
67	0xbe6848c6	-0.22684011
68	0x3d74bd55	0.059750874
69	0xbda0fb9d	-0.078604914
70	0x3cc24e99	0.023719119
71	0xbd878f31	-0.066191085
72	0x3eabf32c	0.33583963
73	0xbe4813e6	-0.1953884
74	0x3d79d2c8	0.060992032
75	0xbc5bfd1e	-0.013427047
76	0x3d0fb713	0.035086703
77	0xbdc78675	-0.097424425
78	0x3d814263	0.063114904
79	0x3db6e542	0.08930446
80	0xbca6bf39	-0.020354854
81	0xbd82c71c	-0.06385633
82	0x3e6ffe86	0.23436937
83	0x3cd07093	0.025444305
84	0xba407dc8	-0.00073429616
85	0x3d51c900	0.05121708
86	0xbd98a6f5	-0.074537195
87	0x3e81f2b0	0.25380468
88	0xbe202e79	-0.15642728
89	0xbecca71b	-0.3997124
90	0xbd921627	-0.071331315
91	0xbe837222	-0.25673014
92	0x3e092f85	0.13397034
93	0xbec7406d	-0.3891634
94	0x3d5e2f4a	0.054244317
95	0xbe343eec	-0.17602128
96	0x3e349512	0.17634991
97	0xbeb75b3c	-0.35811794
98	0x3e0d0ef3	0.13775234
99	0x3db4baa7	0.088246636
100	0x3e1f229b	0.15540545
101	0x3eeee482	0.46658713
102	0xbddfe8c8	-0.109330714
103	0xbe3186b9	-0.17336549
104	0xbdab21da	-0.08356066
105	0x3c56445c	0.013077822
106	0xbea00066	-0.31250304
107	0xbda193bb	-0.078895055
108	0x3e5b6c56	0.21428046
109	0xbde8e761	-0.11372257
110	0xbe129d5b	-0.14317839
111	0xbd25b385	-0.040454406
112	0xbd633690	-0.055471957
113	0x3e32e491	0.17470004
114	0xbd75fe5b	-0.060057025
115	0x3dd9230c	0.10602388
116	0x3e252c87	0.16130267
117	0xbdbe300a	-0.092865065
118	0xbecc1e53	-0.39866886
119	0xbdf886e3	-0.121351026
120	0x3e74400b	0.23852555
121	0xbcabeb84	-0.020986326
122	0xbec825cd	-0.3909134
123	0xbe9659ab	-0.29365286
124	0xbe634d4d	-0.22197457
125	0x3d5f4a1c	0.054514036
126	0x3ecd2ed0	0.40074778
127	0xbebcb447	-0.3685629
128	0xbe139388	-0.14411747
129	0x3d787059	0.060654018
130	0x3e5f444e	0.218034
131	0x3bba5f52	0.0056876326
132	0xbc8bfbc8	-0.017087832
133	0x3d8a91f0	0.067661166
134	0xbd08a842	-0.03336359
135	0xbdb38996	-0.08766477
136	0x3c643450	0.013928488
137	0xbe27052a	-0.16310564
138	0xbe173263	-0.14765315
139	0xbdd4dd99	-0.10393829
140	0x3e4097aa	0.18807855
141	0xbdd02545	-0.101633586
142	0xbe00ae3d	-0.12566467
143	0x3d55f348	0.052233964
144	0x3c7d66a7	0.015466369
145	0x3dcbabe4	0.09944895
146	0x3c8704d9	0.016481804
147	0xbd013dff	-0.031553265
148	0x3d263525	0.040578026
149	0x3d888c86	0.06667428
150	0x3cee1bdf	0.029066024
151	0x3dc756ca	0.097333506
152	0xbe8360e6	-0.25659865
153	0xbe6d8068	-0.23193514
154	0xbc2a9dd9	-0.01041361
155	0x3d8b897f	0.06813335
156	0x3e51b710	0.20479989
157	0x3b2a0358	0.0025941934
158	0x3c9b5442	0.018961076
159	0xbbf1c4c0	-0.0073781908
160	0x3e4daa60	0.20084524
161	0xbdd3c339	-0.1033997
162	0x3dab4195	0.08362118
163	0xbdea4c35	-0.114403166
164	0x3ca0e6f5	0.019641379
165	0x3e518052	0.20459107
166	0xbe2f0866	-0.17093047
167	0x3c166d77	0.009181372
168	0x3dd9eed3	0.10641255
169	0xbd2612a2	-0.040545113
170	0xbdd6ae14	-0.104824215
171	0xbd3be18d	-0.0458694
172	0xbe68b62d	-0.22725745
173	0x3b5ba9c1	0.003351793
174	0xbe37dba3	-0.17954879
175	0xbd4ab65d	-0.04949032
176	0xbd280983	-0.041024696
177	0x3de6dd4c	0.11272678
178	0xbe9a8e6c	-0.30186784
179	0x3e540b4f	0.20707439
180	0x3e2f0abc	0.17093939
181	0xbdaea6ce	-0.08527909
182	0xbed83b32	-0.42232662
183	0xbe2cf9a6	-0.16892108
184	0x3e6fb7ca	0.23409954
185	0xbdba464c	-0.09095439
186	0xbe1bf62b	-0.15230624
187	0xbe6ad1e9	-0.22931637
188	0xbdcbf6b7	-0.099591665
189	0x395ef815	0.00021263988
190	0x3dcf9d19	0.10137386
191	0xbdf7e3bc	-0.12103984
192	0xbde16458	-0.11005467
193	0x3d8a25d5	0.06745497
194	0xbdc59e57	-0.096493416
195	0xbdb3ed66	-0.087855145
196	0x3d4a8f0f	0.049452838
197	0x3e297eb3	0.16552238
198	0x3e108aaf	0.14115404
199	0xbe339fdc	-0.1754145
200	0x3d281a2c	0.041040584
201	0x3e30a115	0.17248948
202	0x3e42f0ea	0.19037214
203	0x3e688e39	0.22710504
204	0x3b903e69	0.004401971
205	0x3e9c8272	0.30568272
206	0xbd4c10c3	-0.049820673
207	0x3e3a2088	0.18176472
208	0xbe8c632e	-0.27419418
209	0xbe0690a2	-0.1314111
210	0x3e11f009	0.14251722
211	0xbe88f390	-0.26748323
212	0x3e809236	0.2511155
213	0xbea74059	-0.3266628
214	0x3de0fe49	0.10986001
215	0x3e02bbe4	0.12766987
216	0x3d28218b	0.041047614
217	0xbe19f105	-0.15033348
218	0xbbb1fe2f	-0.0054319124
219	0x3c9ee473	0.019396042
220	0xbde7641a	-0.1129839
221	0x3def9af5	0.116994776
222	0xbe5d3862	-0.2160354
223	0xbde9aa63	-0.11409452
224	0xbdf13d7f	-0.117793076
225	0x3e2a14f4	0.16609555
226	0xbe14ad1a	-0.14519158
227	0x3e2224b3	0.15834312
228	0xbe94fc73	-0.29098853
229	0xbe58ea93	-0.21183233
230	0xbdde2e0d	-0.10848627
231	0xbc9f4727	-0.019443108
232	0xbe875e5b	-0.26439175
233	0x3e56c885	0.2097493
234	0x3cce6e82	0.025199179
235	0x3d86fc5c	0.065911025
236	0x3ea2c2a9	0.3178914
237	0x3e495d83	0.19664578
238	0x3e6b5cb8	0.22984588
239	0x3e82b42a	0.2552808
240	0xbdb9f036	-0.0907902
241	0x3e478c57	0.19487129
242	0x3e7b342f	0.24531625
243	0xbd7b7107	-0.06138709
244	0xbce5e1c5	-0.028061757
245	0x3d6a73a7	0.0572392
246	0x3d8ca51e	0.06867431
247	0xbd0b0ae8	-0.033945948
248	0x3dcf83b7	0.101325445
249	0x3e8a069b	0.26958165
250	0xbbcaf437	-0.0061936635
251	0xbd7588df	-0.059944984
252	0x3dd3ace2	0.10335709
253	0xbd4400da	-0.047852375
254	0x3e6dabb3	0.2321003
255	0xbcce6d20	-0.02519852

rnn.bias_ih_l0 f4 [192]
0	0xbe3e3b9c	-0.18577427
1	0xbe43c404	-0.19117743
2	0xbe73e71e	-0.23818633
3	0xbe0ac2da	-0.13550892
4	0xbd8cb911	-0.06871236
5	0xbe894a54	-0.2681452
6	0xbd6e5d57	-0.058194485
7	0xbe3a4a83	-0.18192486
8	0xbcafdc59	-0.021467375
9	0xbe1159cb	-0.1419441
10	0x3e2e131f	0.16999482
11	0xbe957846	-0.29193324
12	0xbd3c29cb	-0.045938294
13	0xbba40cd2	-0.005006411
14	0xbe423fb2	-0.1896961
15	0xbe4160ea	-0.18884626
16	0xbd9d39b7	-0.07677024
17	0x3d99584e	0.07487546
18	0xbdca9c94	-0.09893146
19	0xbd64d296	-0.055864893
20	0xbd03bf49	-0.032164846
21	0x3d0053b5	0.03132983
22	0xbe70563f	-0.234704
23	0xbe7de631	-0.24794842
24	0xbe664b3f	-0.22489642
25	0x3d0588d3	0.03260119
26	0x3cb1d7fc	0.021709435
27	0xbdf264fe	-0.11835669
28	0xbd241da7	-0.04006734
29	0x3e10fbe7	0.14158593
30	0xbc6c3e14	-0.014419097
31	0xbc3e43bc	-0.011612829
32	0xbd51b970	-0.051202238
33	0xbdf27a8f	-0.118397824
34	0xbd0dcff2	-0.03462214
35	0x3e283644	0.1642695
36	0xbd81a975	-0.063311495
37	0x3d834ece	0.06411515
38	0xbd03359c	-0.032033548
39	0xbd82c42a	-0.063850716
40	0xbe0d1821	-0.13778736
41	0x3d6299c5	0.055322427
42	0x3df69b64	0.12041357
43	0x3d257c1e	0.04040157
44	0x3d909d5c	0.07061264
45	0xbe6746e4	-0.22585636
46	0xbe2db14f	-0.16962169
47	0xbe46e4cc	-0.19423217
48	0xbe2eaf82	-0.17059138
49	0x3c93dade	0.0180487
50	0x3c8e0fce	0.01734152
51	0xbe54d93b	-0.20785992
52	0xbd6ed553	-0.05830891
53	0x3d960aa9	0.07326252
54	0x3de4bc87	0.11168771
55	0x3c4fb8d0	0.01267834
56	0xbe49ba9c	-0.19700092
57	0x3d3e44f2	0.04645247
58	0xbe252843	-0.1612864
59	0xbe3fe892	-0.18741062
60	0xbe452d0f	-0.1925547
61	0xbdf56c2b	-0.11983522
62	0x3e045108	0.12921536
63	0xbde0dbf0	-0.1097945
64	0x3e1e8c76	0.15483269
65	0x3e3388ec	0.175327
66	0x3ebf146b	0.37320265
67	0x3e1a3299	0.15058364
68	0x3e129183	0.14313321
69	0xb90f3f3a	-0.00013661096
70	0x3d35cf02	0.04438687
71	0x3e48410f	0.19556068
72	0x3ec38005	0.3818361
73	0xb9c6c294	-0.00037910475
74	0xbe0067ab	-0.12539546
75	0x3e1587f6	0.14602646
76	0x3e229a03	0.15879063
77	0xbef2186f	-0.47284266
78	0x3e92cfdf	0.28674218
79	0x3e9622f2	0.29323536
80	0xbdd5bbe2	-0.104362264
81	0xbe96a55b	-0.2942303
82	0x3eb62b0a	0.3557971
83	0x3e44fb74	0.19236547
84	0x3dbb2442	0.09137775
85	0x3e9fde0c	0.31224096
86	0x3e4af3e6	0.19819602
87	0x3e1e4ce3	0.15459017
88	0x3e2689c1	0.16263486
89	0x3e159320	0.14606905
90	0x3eba07e1	0.36334136
91	0x3d8e23ff	0.069404595
92	0xbd0dfbbf	-0.034663912
93	0x3ca2c7c9	0.019870656
94	0x3e1993ab	0.14997737
95	0xbe2c1f68	-0.16808856
96	0xbe172da6	-0.14763507
97	0x3e272471	0.16322495
98	0x3e618992	0.22025135
99	0xbe39ae7e	-0.1813297
100	0x3e366ba4	0.17814499
101	0xbee76dff	-0.45201108
102	0xbd9376c3	-0.072003864
103	0x3e2d452c	0.16920918
104	0x3e4000e1	0.18750335
105	0x3c4cf0e0	0.012508601
106	0xbe33abc1	-0.17545988
107	0xbea0f0e6	-0.3143379
108	0xbd3c5671	-0.045980874
109	0x3d7734ac	0.060352966
110	0x3d8009d6	0.06251876
111	0x3e12d442	0.14338782
112	0x3e185ef5	0.14879973
113	0xbea34df6	-0.31895417
114	0xbe77da87	-0.24204455
115	0x3df80b46	0.12111525
116	0x3e5a4fca	0.213195
117	0x3e01f974	0.12692815
118	0xbe041524	-0.1289869
119	0x3eb43b49	0.3520148
120	0x3e18e57c	0.14931291
121	0x3d2027eb	0.03910057
122	0x3e624e11	0.22100092
123	0x3e0f6bf8	0.1400603
124	0x3e73cdcd	0.23808976
125	0xbdebcc7f	-0.11513614
126	0xbebe2bb6	-0.37142724
127	0x3df4ff5e	0.1196277
128	0x3d576ce9	0.0525941
129	0xbcba1076	-0.022712927
130	0xbc34a06c	-0.011024576
131	0x3d7eb715	0.06218632
132	0x3d0069f7	0.031351056
133	0xbcff49d7	-0.03116314
134	0xbd13dcbe	-0.036099188
135	0x3d0b39dd	0.03399073
136	0xbc993a05	-0.018704424
137	0xbd15f1c6	-0.036607526
138	0xbd0040e3	-0.03131188
139	0xbb8c8515	-0.0042883256
140	0xbc7e8526	-0.015534675
141	0xbda0347d	-0.07822511
142	0x3d1dbdf3	0.038511228
143	0xbd9282df	-0.07153868
144	0x3c8c9c0a	0.017164249
145	0xbd93faf8	-0.07225603
146	0xbce8db6f	-0.028424947
147	0x3d612d76	0.054974996
148	0xbd35712c	-0.044297382
149	0xbd0cc079	-0.034363244
150	0xbcb8a46e	-0.022539344
151	0xbcf33489	-0.029688137
152	0xbc58ced7	-0.013232908
153	0x3d82b52b	0.06382211
154	0x3bfbbf65	0.007682728
155	0x3b4a2459	0.0030844419
156	0x3cc0b5fc	0.023524277
157	0x3d3713a0	0.04469645
158	0x3d5aef1b	0.053450685
159	0x3c939f71	0.018020364
160	0xbd6ebc47	-0.058285024
161	0x3d583cb5	0.05279227
162	0x3d31b9bc	0.04339002
163	0xbd8a49f7	-0.06752389
164	0x3d8bd94e	0.06828557
165	0xbd2d56f1	-0.042319242
166	0x3c6e2d0a	0.014537105
167	0x3da9db3e	0.0829377
168	0x3d92b821	0.07164026
169	0xbd9cf373	-0.07663622
170	0x3d8b2f05	0.06796078
171	0xbd11d3e8	-0.03560248
172	0xbd93c7d1	-0.07215846
173	0xbc924eae	-0.017859783
174	0xbd594944	-0.053048387
175	0xbcde467a	-0.027133215
176	0xbc778bdd	-0.01510903
177	0xbd8245c9	-0.06360967
178	0xbcf5c806	-0.030002605
179	0xbd2a7020	-0.041610837
180	0x3c60f519	0.013730311
181	0x3cbace98	0.02280359
182	0xbd5405fd	-0.051763523
183	0x3d57ef5a	0.052718498
184	0xbc8f0fd7	-0.017463608
185	0xbd88e6ec	-0.0668467
186	0xbbe44be5	-0.006967055
187	0x3ce8491d	0.028355176
188	0x3c9b0831	0.018924804
189	0xbd798f1c	-0.060927495
190	0xbcaab5bc	-0.02083861
191	0x3ce54242	0.027985696
